models/cifar10_narrow_mobilenetv2.ckpt (torch, 132475 bytes, 147 tensors)

pre.0.weight f4 [1, 3, 1, 1]
000000 12 b1 50 3e 5a b5 c5 3e 06 41 14 3e
       0.20380047 0.38614923 0.1447793

stage1.residual.3.weight f4 [1, 1, 3, 3]
000000 db 50 48 bd 15 4c 5e be 12 54 f6 bc e8 06 8e bc
       -0.048905235 -0.2170871 -0.030069385 -0.017337278
000010 b1 da a0 3e 88 d1 83 be e8 29 71 be 6e 43 37 3d
       0.31416848 -0.25745797 -0.23551142 0.04474204
000020 b0 10 87 bd
       -0.0659498

stage1.residual.6.weight f4 [2, 1, 1, 1]
000000 95 4c 6d bf 92 82 08 3e
       -0.9269498 0.13331059

stage1.residual.6.bias f4 [2]
000000 e6 f6 20 3f bd 84 6c 3f
       0.6287674 0.9239004

stage1.residual.7.weight f4 [2]
000000 29 c9 84 3f 68 fb 73 3f
       1.0373889 0.9530549

stage1.residual.7.bias f4 [2]
000000 a5 3c 80 3d dd 42 27 3c
       0.06261567 0.010208813

stage1.residual.7.running_mean f4 [2]
000000 e1 59 74 3e f8 e3 7a 3f
       0.23862411 0.980041

stage1.residual.7.running_var f4 [2]
000000 89 bc 90 3d b7 ac bf 3a
       0.0706721 0.0014623617

stage2.0.residual.0.weight f4 [2, 2, 1, 1]
000000 1e 4f 04 3f 2b 1d 1f bd 67 96 20 3f f1 ab 1e 3f
       0.51683223 -0.038846176 0.62729496 0.6198111

stage2.0.residual.0.bias f4 [2]
000000 cd 6b 84 be 35 d7 8c 3e
       -0.25863495 0.2750794

stage2.0.residual.1.weight f4 [2]
000000 0c 30 85 3f ba 88 55 3f
       1.0405288 0.83411753

stage2.0.residual.1.bias f4 [2]
000000 65 b7 92 3c 28 7f 8e 3d
       0.017909715 0.06957847

stage2.0.residual.1.running_mean f4 [2]
000000 18 19 68 be 35 2b a4 3e
       -0.22665823 0.32064214

stage2.0.residual.1.running_var f4 [2]
000000 59 28 a8 3e 27 61 7c 3b
       0.32843283 0.0038510056

stage2.0.residual.3.weight f4 [2, 1, 3, 3]
000000 85 4f 6e 3d a9 ac fd bd 42 87 a4 bd c2 24 60 3e
       0.058181304 -0.12386448 -0.08033611 0.21889022
000010 0d e9 9d bd 82 56 e8 3d d2 79 b9 bd cc 27 ba 3e
       -0.077104665 0.11344625 -0.090564385 0.36358488
000020 90 25 29 be 57 8a 9b 3e 6f dc 74 be f2 e9 8a bc
       -0.16518235 0.30378982 -0.23912214 -0.016957257
000030 09 3a 88 3e 5e 80 a6 be 75 01 3b bd 88 17 c5 b9
       0.26606777 -0.3251981 -0.045655686 -0.000375923
000040 f6 01 34 3e 42 b6 9e be
       0.17578873 -0.30998427

stage2.0.residual.3.bias f4 [2]
000000 bb 05 8c be 92 05 42 be
       -0.27348122 -0.18947437

stage2.0.residual.4.weight f4 [2]
000000 2a 70 82 3f 45 38 77 3f
       1.019048 0.96570235

stage2.0.residual.4.bias f4 [2]
000000 6f f2 03 3d 7c 2e 8e bd
       0.032213625 -0.0694246

stage2.0.residual.4.running_mean f4 [2]
000000 cf fa 30 be 62 f9 8e be
       -0.17283176 -0.2792464

stage2.0.residual.4.running_var f4 [2]
000000 46 1c 23 3d 2f 69 6f 3d
       0.039821886 0.05844992

stage2.0.residual.6.weight f4 [1, 2, 1, 1]
000000 c4 29 26 3f ac ee a7 be
       0.6490748 -0.3279928

stage2.1.residual.3.weight f4 [1, 1, 3, 3]
000000 61 fe 11 be f5 b2 8a be ff d0 a5 be 64 62 ca be
       -0.14257194 -0.27089658 -0.32386014 -0.3952819
000010 c1 1d 3b be ce f7 9f be a3 35 e8 3d 67 14 51 be
       -0.18273069 -0.31243747 0.113383554 -0.20417939
000020 4f dd 2c 3e
       0.16881298

stage3.0.residual.3.weight f4 [1, 1, 3, 3]
000000 f2 33 55 bd 14 b8 2e 3e 40 85 be be 5f 7f 86 be
       -0.052051492 0.17062408 -0.37211037 -0.2626905
000010 cc 3a 45 3e 9c 9c 00 3e 86 6f 80 be 59 13 1e 3e
       0.1926071 0.12559742 -0.25085086 0.15437068
000020 eb 61 9a 3d
       0.075382076

stage3.0.residual.6.weight f4 [2, 1, 1, 1]
000000 71 b3 c1 be f2 ab 41 bf
       -0.37832215 -0.7565299

stage3.0.residual.6.bias f4 [2]
000000 1b 17 8d 3e 75 41 29 bf
       0.2755669 -0.66115505

stage3.0.residual.7.weight f4 [2]
000000 bb 0e 6e 3f fb bf 85 3f
       0.92991227 1.0449213

stage3.0.residual.7.bias f4 [2]
000000 ad d5 de bd 2e d5 6e 3d
       -0.10880599 0.058308773

stage3.0.residual.7.running_mean f4 [2]
000000 1e b7 4d 3e cb 7a 4f bf
       0.20089385 -0.8104674

stage3.0.residual.7.running_var f4 [2]
000000 8e 3f 18 3d 45 30 18 3e
       0.037169985 0.14862163

stage3.1.residual.0.weight f4 [2, 2, 1, 1]
000000 17 9f 0f bf 62 81 80 3e b4 00 bb 3d 7d f1 9c 3e
       -0.56102127 0.2509871 0.091309935 0.3065299

stage3.1.residual.0.bias f4 [2]
000000 ec a5 1d bf 86 00 9a be
       -0.615813 -0.30078524

stage3.1.residual.1.weight f4 [2]
000000 4a f0 7c 3f 22 ec 88 3f
       0.9880415 1.0697062

stage3.1.residual.1.bias f4 [2]
000000 2e 96 49 be 88 01 c8 bc
       -0.19686195 -0.024414793

stage3.1.residual.1.running_mean f4 [2]
000000 0f 46 0a bf 0d f0 95 be
       -0.5401315 -0.29284707

stage3.1.residual.1.running_var f4 [2]
000000 7b e0 89 3d 98 2d 28 3e
       0.067322694 0.16423643

stage3.1.residual.3.weight f4 [2, 1, 3, 3]
000000 33 df b5 3d ab 30 82 3d c0 12 3a 3e 86 66 01 3e
       0.088804625 0.06356939 0.18171215 0.12636766
000010 9d 5b 81 3e eb af b6 3d 0d 64 f0 3d 14 78 13 3f
       0.25265208 0.089202724 0.11737833 0.576051
000020 a4 98 66 be 0c ce 55 3e 8c 74 f9 3c 95 8f 8e 3d
       -0.22519165 0.20879382 0.030451082 0.0696098
000030 1d be 89 be 76 38 1a bd 3c cd 8d 3e 10 85 91 be
       -0.26902857 -0.0376515 0.27695644 -0.2842183
000040 d3 ff d9 3d e1 68 3e 3e
       0.10644498 0.18594696

stage3.1.residual.3.bias f4 [2]
000000 ea 1f 80 3e c8 a9 44 be
       0.25024348 -0.19205391

stage3.1.residual.4.weight f4 [2]
000000 1e 40 85 3f 17 67 70 3f
       1.0410192 0.939073

stage3.1.residual.4.bias f4 [2]
000000 99 74 27 be fb 68 8e 3c
       -0.16353072 0.017384043

stage3.1.residual.4.running_mean f4 [2]
000000 45 b9 0d 3f 36 ed f4 bd
       0.55360824 -0.11959307

stage3.1.residual.4.running_var f4 [2]
000000 29 e2 d9 3e b3 92 3f 3c
       0.4255536 0.011692691

stage3.1.residual.6.weight f4 [2, 2, 1, 1]
000000 1d 30 f1 be 27 1e c3 be 01 dc 8a bd 4b ce 22 3f
       -0.4710702 -0.38108942 -0.06780244 0.6359603

stage3.1.residual.6.bias f4 [2]
000000 73 ed 2f bf 58 25 17 bf
       -0.68721694 -0.5904136

stage3.1.residual.7.weight f4 [2]
000000 2e 0f 8a 3f 72 b5 80 3f
       1.0785882 1.0055373

stage3.1.residual.7.bias f4 [2]
000000 33 5a 98 bd 6a 30 7d 3d
       -0.07439079 0.06181375

stage3.1.residual.7.running_mean f4 [2]
000000 3c e8 79 bf d5 3c ba be
       -0.97619987 -0.36374536

stage3.1.residual.7.running_var f4 [2]
000000 19 ef 3a 3e 17 52 dd 3d
       0.18255271 0.10806673

stage3.2.residual.0.weight f4 [2, 2, 1, 1]
000000 92 35 d4 3d f7 1e 3a 3e 1f e7 c0 3d 89 b0 1f be
       0.1036178 0.18175875 0.09419083 -0.15594687

stage3.2.residual.0.bias f4 [2]
000000 e9 53 03 3f ad 24 f4 be
       0.5129991 -0.4768423

stage3.2.residual.1.weight f4 [2]
000000 bc 24 88 3f a8 8c 6f 3f
       1.063621 0.93574

stage3.2.residual.1.bias f4 [2]
000000 ab 7e a4 3c 10 5c d8 3d
       0.020079931 0.105644345

stage3.2.residual.1.running_mean f4 [2]
000000 a1 0e 04 3f 87 47 03 bf
       0.5158482 -0.5128102

stage3.2.residual.1.running_var f4 [2]
000000 63 0e 25 3e 14 f1 2e 3d
       0.1611877 0.04271038

stage3.2.residual.3.weight f4 [2, 1, 3, 3]
000000 f7 4b 7c bd 68 a1 c0 3e 5f c0 d1 3d d5 b9 90 bd
       -0.061595883 0.37623143 0.1024177 -0.07066695
000010 05 ff 79 bd 36 b0 1c be 7e 2c 1a 3e b5 e6 b2 3d
       -0.06103422 -0.15301594 0.15056035 0.0873541
000020 b3 af f8 bc ce a5 7e bc 24 bd 47 be 96 49 87 3a
       -0.030357217 -0.015542461 -0.19505745 0.0010321613
000030 26 f5 d9 3b 14 a2 9a be fa b7 73 bd d5 dc d4 bd
       0.0066515384 -0.3020178 -0.059501626 -0.10393683
000040 fa 9b e0 3c 8b 10 ee be
       0.027418125 -0.46496996

stage3.2.residual.3.bias f4 [2]
000000 b2 cb 1e be fc db 93 bd
       -0.15507391 -0.07219693

stage3.2.residual.4.weight f4 [2]
000000 39 7a 6a 3f 0a 97 8b 3f
       0.91592747 1.0905468

stage3.2.residual.4.bias f4 [2]
000000 93 11 99 bd 82 6e 4e bc
       -0.07474055 -0.012599589

stage3.2.residual.4.running_mean f4 [2]
000000 87 01 58 bd 80 ad f4 be
       -0.05273583 -0.4778862

stage3.2.residual.4.running_var f4 [2]
000000 7a c1 9e 3c bc 2e 95 3d
       0.019379366 0.072843045

stage3.2.residual.6.weight f4 [2, 2, 1, 1]
000000 43 25 2a bc 4f 4a af be 4a 51 e9 be e3 b2 43 bf
       -0.01038486 -0.3423638 -0.4556983 -0.76444834

stage3.2.residual.6.bias f4 [2]
000000 e1 ad 9c 3e cf 63 a6 be
       0.3060141 -0.32498023

stage3.2.residual.7.weight f4 [2]
000000 f7 44 88 3f a9 c3 7c 3f
       1.0646046 0.98736054

stage3.2.residual.7.bias f4 [2]
000000 d6 dc 7f bd 43 bc 52 bd
       -0.062466465 -0.05144907

stage3.2.residual.7.running_mean f4 [2]
000000 72 02 22 3e 9f 7e 4a bf
       0.15821245 -0.7909946

stage3.2.residual.7.running_var f4 [2]
000000 9d 0b 09 3d bb 7a 9f 3e
       0.03345834 0.31148323

stage4.0.residual.0.weight f4 [2, 2, 1, 1]
000000 45 5b d2 be 43 66 52 bd f0 e6 5e be 92 6f a7 be
       -0.41085258 -0.051367056 -0.21767783 -0.3270231

stage4.0.residual.0.bias f4 [2]
000000 3c e0 1f 3f 85 a6 3b 3f
       0.6245153 0.73300964

stage4.0.residual.1.weight f4 [2]
000000 a1 89 71 3f 00 a6 17 3f
       0.9435063 0.5923767

stage4.0.residual.1.bias f4 [2]
000000 78 27 9a bd f6 c0 fa be
       -0.07527059 -0.48975343

stage4.0.residual.1.running_mean f4 [2]
000000 b2 cf 38 3f 5e 98 43 3f
       0.7219192 0.7640437

stage4.0.residual.1.running_var f4 [2]
000000 2e 5a 73 3f d9 10 46 3f
       0.9505948 0.7736946

stage4.0.residual.3.weight f4 [2, 1, 3, 3]
000000 2c 42 18 be 5d bd 12 3c a8 8c a5 3e cb f9 85 be
       -0.14868993 0.008956281 0.32333875 -0.2616714
000010 61 39 e1 3b 37 ac b3 3d b4 6b 82 3c 7c 42 90 be
       0.006873295 0.08773082 0.015920497 -0.28175724
000020 30 e0 90 be 32 ad dc 3c 45 41 ea 3d 8f c3 5d 3e
       -0.2829604 0.026938055 0.114382304 0.21656631
000030 14 38 65 3b 7e 9d 1d 3f f3 e7 76 bd 5a a7 6b 3c
       0.0034976052 0.6156844 -0.060279798 0.014383161
000040 c4 c0 4a 3d 7b f1 04 be
       0.049500242 -0.12982742

stage4.0.residual.3.bias f4 [2]
000000 1e 54 73 bc 90 39 68 bb
       -0.014851598 -0.00354347

stage4.0.residual.4.weight f4 [2]
000000 ea 1b 43 3f c5 68 9c 3f
       0.7621447 1.2219473

stage4.0.residual.4.bias f4 [2]
000000 57 f4 0c bc 0e 99 6d be
       -0.008603177 -0.23202917

stage4.0.residual.4.running_mean f4 [2]
000000 a1 d8 0d be fd 32 c9 3d
       -0.13852169 0.09824178

stage4.0.residual.4.running_var f4 [2]
000000 f0 69 a7 3d 17 0c d5 3d
       0.08174503 0.104026966

stage4.0.residual.6.weight f4 [1, 2, 1, 1]
000000 fa 32 c6 3e 9d b7 fe bd
       0.38710767 -0.12437365

stage4.1.residual.3.weight f4 [1, 1, 3, 3]
000000 2e 73 ad 3d c1 6f b3 3d 16 84 6f 3e 29 46 58 be
       0.084692344 0.0876155 0.2339023 -0.21120514
000010 33 39 e7 bd 53 15 e7 3e c3 f5 b4 3b ef 67 28 3e
       -0.11290207 0.45133457 0.005522461 0.16445898
000020 61 7f 8d bd
       -0.06909061

stage4.2.residual.3.weight f4 [1, 1, 3, 3]
000000 92 fb 51 bd 3c e7 6a 3e dc 93 1a be a0 1a 3a be
       -0.051265307 0.22939771 -0.15095466 -0.18174219
000010 ff 99 d3 3d d5 33 af 3d 1d 2f 8f 3e 22 bc 09 3e
       0.10332107 0.08554808 0.27965632 0.13450673
000020 eb 7f 82 bb
       -0.003982534

stage4.3.residual.3.weight f4 [1, 1, 3, 3]
000000 27 5d 84 bc 0a e0 5f 3e 8c 37 25 be b3 65 92 3d
       -0.0161577 0.21862808 -0.1613447 0.07148304
000010 da 79 51 3e a9 ad 40 3e cb e0 ef bc b5 b5 75 3e
       0.20456639 0.18816246 -0.029281994 0.23995097
000020 d4 db 8f 3e
       0.28097403

stage5.0.residual.3.weight f4 [1, 1, 3, 3]
000000 b7 9c 8b bc 34 9e a6 bd 3a 39 23 be ea 9d ad 3c
       -0.0170425 -0.081356436 -0.15939799 0.021193463
000010 54 02 03 be f1 49 83 3e 3b 80 98 3c 8a f9 14 3e
       -0.12793857 0.2564235 0.018615833 0.14548317
000020 1b bd 14 3f
       0.5810105

stage5.0.residual.6.weight f4 [2, 1, 1, 1]
000000 a3 bb 32 3d f0 4a cc 3e
       0.043635976 0.39900923

stage5.0.residual.6.bias f4 [2]
000000 cd 65 49 3f ab 29 a4 be
       0.7867096 -0.3206304

stage5.0.residual.7.weight f4 [2]
000000 1f e6 63 3f 0a 05 59 3f
       0.8902301 0.84773314

stage5.0.residual.7.bias f4 [2]
000000 68 c4 6b 3d ca e3 fe 3c
       0.057560354 0.031114478

stage5.0.residual.7.running_mean f4 [2]
000000 06 4f 4b 3f 31 3a 81 be
       0.79417455 -0.2523971

stage5.0.residual.7.running_var f4 [2]
000000 2a bd 14 3a 5a 2c 42 3d
       0.00056739396 0.04740558

stage5.1.residual.0.weight f4 [2, 2, 1, 1]
000000 c8 2a b3 be 5a 7d 96 3e 41 8a 2a bf 28 00 c4 be
       -0.34993577 0.2939251 -0.6661721 -0.3828137

stage5.1.residual.0.bias f4 [2]
000000 ce bb 09 bf ce d8 93 3e
       -0.5380219 0.28876346

stage5.1.residual.1.weight f4 [2]
000000 d6 a6 2e 3f ca a8 5a 3f
       0.6822332 0.854138

stage5.1.residual.1.bias f4 [2]
000000 36 72 4c 3e d7 f8 db 3d
       0.19965443 0.10740822

stage5.1.residual.1.running_mean f4 [2]
000000 c9 8c 0c bf 1f 3b 74 3e
       -0.5490232 0.23850678

stage5.1.residual.1.running_var f4 [2]
000000 39 39 69 3b 20 2c 55 3f
       0.0035587086 0.83270454

stage5.1.residual.3.weight f4 [2, 1, 3, 3]
000000 0f 69 eb bb 6a 28 91 3d 14 50 cc 3c 01 39 c5 3b
       -0.007184155 0.070877865 0.024940528 0.0060187583
000010 69 05 3c 3d 8c 02 91 bd f0 3c 03 3f 0e 70 5f 3e
       0.045903597 -0.07080564 0.5126486 0.21820089
000020 e7 c2 cf be a5 3c b5 bc b0 95 06 3d 75 0a 74 3e
       -0.40578386 -0.022123644 0.032857597 0.23832114
000030 df d0 1f 3b 06 97 36 be f7 da a4 bd 2d 82 24 be
       0.0024385971 -0.17831048 -0.08049577 -0.16065283
000040 84 0e 2f be 57 73 cb be
       -0.17095381 -0.39736435

stage5.1.residual.3.bias f4 [2]
000000 8d 82 c2 be 6d 69 37 3e
       -0.37990227 0.1791131

stage5.1.residual.4.weight f4 [2]
000000 9b 38 82 3f 1c e9 75 3f
       1.0173525 0.9605882

stage5.1.residual.4.bias f4 [2]
000000 6a ab 00 be d3 fb f2 3d
       -0.1256539 0.11864438

stage5.1.residual.4.running_mean f4 [2]
000000 71 0d 8b be 77 fc c4 bb
       -0.27158692 -0.0060115415

stage5.1.residual.4.running_var f4 [2]
000000 d0 e5 b9 3c 4a 58 57 3c
       0.022692591 0.013143608

stage5.1.residual.6.weight f4 [2, 2, 1, 1]
000000 2a a5 42 3e a9 cc 02 3f 1e c1 f0 be 7d 7b f1 3a
       0.19008318 0.51093537 -0.47022337 0.0018423643

stage5.1.residual.6.bias f4 [2]
000000 92 d8 c2 3e 24 8e a8 bd
       0.38055855 -0.08230236

stage5.1.residual.7.weight f4 [2]
000000 53 85 83 3f 02 1c 75 3f
       1.0275062 0.9574586

stage5.1.residual.7.bias f4 [2]
000000 fd 59 54 3d 34 8f 82 3d
       0.051843632 0.0637497

stage5.1.residual.7.running_mean f4 [2]
000000 d2 98 2d 3f 42 92 7d be
       0.6781131 -0.24762824

stage5.1.residual.7.running_var f4 [2]
000000 b8 9b dd 3d 09 87 9d 3d
       0.108207166 0.076917715

stage5.2.residual.0.weight f4 [2, 2, 1, 1]
000000 5d 8b 8c 3e 31 9a a2 be 51 23 e2 be df e9 41 bf
       0.27450076 -0.31758264 -0.4416757 -0.75747484

stage5.2.residual.0.bias f4 [2]
000000 47 ba 04 3f f7 a4 23 3e
       0.51846737 0.15980898

stage5.2.residual.1.weight f4 [2]
000000 b7 a4 82 3f 3c 88 6b 3f
       1.0206517 0.9200475

stage5.2.residual.1.bias f4 [2]
000000 74 04 11 bd 9c 70 e4 bd
       -0.035404637 -0.11154291

stage5.2.residual.1.running_mean f4 [2]
000000 93 b4 04 3f 80 51 22 3d
       0.51838034 0.039628506

stage5.2.residual.1.running_var f4 [2]
000000 a9 70 5b 3e 9d 1f e6 3f
       0.21429695 1.7978398

stage5.2.residual.3.weight f4 [2, 1, 3, 3]
000000 6b 56 ff bd 5f 2f 87 bd 34 47 a6 3e d6 cc 8b bd
       -0.12467655 -0.06600832 0.324762 -0.06826179
000010 67 ff 80 bd 3a b9 2e 3e 48 1f 7d bd e9 77 c4 be
       -0.06298714 0.17062846 -0.06179741 -0.38372734
000020 cb 38 3f 3e 9a bf 0c 3e ca 19 d3 3d 41 71 46 bd
       0.18674009 0.13744965 0.10307653 -0.04844785
000030 44 24 59 bc c7 13 80 3d 5f 4c 2e be 81 82 04 be
       -0.013253275 0.06253772 -0.17021321 -0.12940408
000040 f0 31 1a bd 16 98 2c 3e
       -0.03764528 0.16854891

stage5.2.residual.3.bias f4 [2]
000000 4f 3e 44 be 31 8c 20 3e
       -0.19164394 0.15678479

stage5.2.residual.4.weight f4 [2]
000000 ad 2b 66 3f 3b b8 89 3f
       0.89910394 1.0759348

stage5.2.residual.4.bias f4 [2]
000000 e4 0d 84 be 60 0d 90 bd
       -0.25791848 -0.07033801

stage5.2.residual.4.running_mean f4 [2]
000000 ab fe 47 be 59 7d 33 3e
       -0.19530742 0.17528285

stage5.2.residual.4.running_var f4 [2]
000000 7e f7 5b 3e ac 54 27 3c
       0.2148113 0.010213058

stage5.2.residual.6.weight f4 [2, 2, 1, 1]
000000 4d f1 ff 3d 6b fb 4e be 81 8a 19 bf 30 94 1c 3f
       0.12497196 -0.20213096 -0.59976965 0.61163616

stage5.2.residual.6.bias f4 [2]
000000 52 9d 86 3e ff 16 dc be
       0.262919 -0.42986295

stage5.2.residual.7.weight f4 [2]
000000 96 a1 6e 3f 46 3e a4 3f
       0.9321531 1.2831504

stage5.2.residual.7.bias f4 [2]
000000 6f 2d 1e 3d 7e 4e d2 3d
       0.038617548 0.102688774

stage5.2.residual.7.running_mean f4 [2]
000000 5b c8 63 3e fa 84 b9 be
       0.22244398 -0.36234266

stage5.2.residual.7.running_var f4 [2]
000000 1e ff d3 3c ef 0f 9d 3e
       0.025878485 0.3067622

stage6.0.residual.0.weight f4 [2, 2, 1, 1]
000000 e2 14 df be 49 0d 2b be f3 d5 37 bd 35 1f d4 3d
       -0.4357062 -0.16704287 -0.044881772 0.10357515

stage6.0.residual.0.bias f4 [2]
000000 58 b1 ab 3e a0 5d 2b 3e
       0.3353374 0.16734934

stage6.0.residual.1.weight f4 [2]
000000 fa 21 34 3f c1 dc 65 3f
       0.70364344 0.8978997

stage6.0.residual.1.bias f4 [2]
000000 19 c9 5a be 8f 75 17 3e
       -0.21365775 0.14790939

stage6.0.residual.1.running_mean f4 [2]
000000 90 8d 73 3e d1 82 39 3e
       0.2378447 0.18116309

stage6.0.residual.1.running_var f4 [2]
000000 11 dc cc 3e ab f0 1c 3d
       0.40011647 0.038315456

stage6.0.residual.3.weight f4 [2, 1, 3, 3]
000000 50 72 cd 3c f5 3e 5d 3e b8 5c 65 3e e2 03 13 be
       0.025078923 0.21606047 0.2239865 -0.1435695
000010 84 a7 3d bd 8f 18 9e be 6f 75 07 be b2 0a 36 3e
       -0.046302333 -0.30878112 -0.13228391 0.17777517
000020 0a e3 b8 be 2c 6c ca bb 84 68 3f bd 5c ed eb be
       -0.36110717 -0.006177446 -0.046730533 -0.46079528
000030 a7 68 39 bd 14 c8 3d be eb 83 1f be 4f 2a 15 be
       -0.04526582 -0.18533355 -0.15577666 -0.1456692
000040 cf c9 54 bd ad d4 2b bf
       -0.051950272 -0.6712139

stage6.0.residual.3.bias f4 [2]
000000 d6 c9 86 3e 3e aa 9d bd
       0.26325864 -0.07698487

stage6.0.residual.4.weight f4 [2]
000000 da ce 78 3f 17 f1 70 3f
       0.9719063 0.94117874

stage6.0.residual.4.bias f4 [2]
000000 9d d3 b2 3d 3e a3 26 3e
       0.08731768 0.1627321

stage6.0.residual.4.running_mean f4 [2]
000000 8b 71 7d 3e 71 15 24 bf
       0.24750344 -0.64095217

stage6.0.residual.4.running_var f4 [2]
000000 67 ce b3 3c ac f8 93 3e
       0.021949006 0.2890066

stage6.0.residual.6.weight f4 [1, 2, 1, 1]
000000 0d 2d 36 3e 1f 41 b5 3e
       0.17790623 0.35401246

stage6.1.residual.3.weight f4 [1, 1, 3, 3]
000000 33 8f 86 bc d8 43 47 be 6d a7 4a bd a5 3e 85 bd
       -0.016425705 -0.19459474 -0.049476076 -0.06506089
000010 5e bc b7 3e 1c b9 90 3e ec 1d 8d bd 61 31 1a be
       0.358859 0.28266227 -0.06890473 -0.15057899
000020 8b 5d 88 3d
       0.06658467

stage6.2.residual.3.weight f4 [1, 1, 3, 3]
000000 8c ac 5a be de a4 42 3e 0f 31 73 3e 29 9f 3f be
       -0.21354884 0.19008204 0.23749183 -0.18713059
000010 05 ee e4 3b f3 55 f0 3d 3e 0f 17 be 07 9e 89 3e
       0.006986382 0.117351435 -0.14751908 0.26878378
000020 a3 d6 56 ba
       -0.00081954355

stage7.residual.3.weight f4 [1, 1, 3, 3]
000000 ac df 3a bf 6d 37 ee bd 48 f2 df 3d 18 37 8c bd
       -0.72997546 -0.116316654 0.10934883 -0.06846446
000010 96 92 88 3d 95 5e c8 be cd c9 18 3d 45 63 5b bd
       0.06668584 -0.3913466 0.037301827 -0.053561468
000020 31 34 c2 3d
       0.09482611

stage7.residual.6.weight f4 [2, 1, 1, 1]
000000 96 c1 b1 be 7d c1 4b 3f
       -0.34718007 0.79592115

stage7.residual.6.bias f4 [2]
000000 96 20 ad be be 3d 17 bf
       -0.33813924 -0.59078586

stage7.residual.7.weight f4 [2]
000000 7d ee d7 3f 04 d6 dd 3f
       1.6869656 1.7330937

stage7.residual.7.bias f4 [2]
000000 ef 34 74 be b3 e1 6c 3e
       -0.23848318 0.23132972

stage7.residual.7.running_mean f4 [2]
000000 e3 ad ae be c0 7b 15 bf
       -0.3411704 -0.5839195

stage7.residual.7.running_var f4 [2]
000000 d6 d2 65 38 2a fc 96 39
       5.479421e-05 0.00028798106

conv1.0.weight f4 [1, 2, 1, 1]
000000 14 54 6a 3f 86 2e 38 bf
       0.91534543 -0.7194599
