models/cifar10_narrow_wideresidual.ckpt (torch, 97218 bytes, 100 tensors)

init_conv.weight f4 [1, 3, 3, 3]
0	0x402ecfe8	2.7314396
1	0x4033baae	2.808269
2	0x3f63333a	0.8875004
3	0x3fb7f981	1.4373018
4	0x3fe018e6	1.7507598
5	0x3f50eb09	0.81608635
6	0x40789679	3.8841841
7	0x403ff09f	2.9990613
8	0xbff0f422	-1.8824503
9	0x3f227449	0.6345869
10	0xbd890ad7	-0.06691521
11	0x3fce50ca	1.6118405
12	0x40078a60	2.1178207
13	0x3f72d96a	0.94863
14	0x3f70ab6e	0.9401158
15	0x401c6c11	2.4440958
16	0x3f3783b2	0.71685326
17	0xbf509672	-0.8147956
18	0xc002cd27	-2.0437715
19	0x3e4f3b86	0.2023755
20	0xbd644acb	-0.05573539
21	0xbf61d848	-0.88220644
22	0xbd0b39cc	-0.033990666
23	0x40596db3	3.3973205
24	0xc05ca850	-3.447773
25	0xbf05a4be	-0.522045
26	0x3fda3532	1.7047484

conv2.0.residual.2.weight f4 [2, 1, 3, 3]
0	0x3eb0e22f	0.34547564
1	0x3f4e65fd	0.8062437
2	0x3d8f3438	0.06992382
3	0x3e22cde7	0.15898858
4	0x3ed41d3d	0.41428557
5	0x3d9a82e3	0.07544496
6	0xbd89e4f7	-0.06733125
7	0x3debd0af	0.115144126
8	0x3d0c5503	0.03426076
9	0x3f3e994b	0.74452657
10	0x3e73adc9	0.23796763
11	0xbfa2b141	-1.2710344
12	0xbf7ba1c8	-0.98293734
13	0xbf80f66f	-1.0075206
14	0xc03c94eb	-2.9465892
15	0xc040580a	-3.0053735
16	0xbf3e7c39	-0.744083
17	0xc053be0f	-3.3084753

conv2.0.residual.2.bias f4 [2]
0	0xb8496476	-4.8015696e-05
1	0xb8506157	-4.968172e-05

conv2.0.residual.3.weight f4 [2]
0	0x3e6c1325	0.23054178
1	0xc05f81b2	-3.492291

conv2.0.residual.3.bias f4 [2]
0	0x3ec8ab91	0.39193395
1	0x3fd4a86b	1.6613897

conv2.0.residual.3.running_mean f4 [2]
0	0x404b03e9	3.1721137
1	0xc19d7f01	-19.687014

conv2.0.residual.3.running_var f4 [2]
0	0x416787f5	14.470693
1	0x440aa6bb	554.60516

conv2.0.residual.5.weight f4 [2, 2, 3, 3]
0	0xbe86e91c	-0.26349723
1	0xbdfc8c3b	-0.12331434
2	0x3d832bb0	0.06404817
3	0x3ce5d872	0.02805731
4	0xbe2cc2e0	-0.16871214
5	0x3c932f88	0.017967
6	0xbd960c00	-0.073265076
7	0xbdf193f4	-0.11795798
8	0x3d184327	0.037173416
9	0xbec8c95e	-0.3921613
10	0xbfe90aa6	-1.8206375
11	0xbfb6c300	-1.4278259
12	0xbf38938a	-0.72100127
13	0xbfe34fef	-1.7758769
14	0xbf26a1fd	-0.65090925
15	0xc02dd353	-2.7160232
16	0xbffd27df	-1.9777793
17	0xbfe3d0a8	-1.7798052
18	0xbe96114c	-0.2931007
19	0xbdab9a73	-0.08379068
20	0xbf05b046	-0.52222097
21	0xbdb8cb1a	-0.090231135
22	0xbdd4280b	-0.103592
23	0xbef07685	-0.46965423
24	0xbdca561c	-0.09879705
25	0xbe816530	-0.25272512
26	0xbf13cdf2	-0.5773612
27	0xc029c7ca	-2.6528192
28	0xbf9f6b2d	-1.2454582
29	0xc029dc12	-2.654057
30	0xbfc2e8df	-1.5227317
31	0xbf5471be	-0.82986057
32	0xc05d3e13	-3.4569137
33	0xc03ce488	-2.9514484
34	0x3f89906d	1.07472
35	0xbfd44960	-1.6584892

conv2.0.residual.5.bias f4 [2]
0	0x3a41b275	0.0007388958
1	0xba8a270b	-0.00105402

conv2.0.shortcut.0.weight f4 [2, 1, 1, 1]
0	0xbed74084	-0.4204141
1	0xbfba3450	-1.4547215

conv2.0.shortcut.0.bias f4 [2]
0	0x3a41b275	0.0007388958
1	0xba8a270b	-0.00105402

conv2.1.residual.0.weight f4 [2]
0	0xbf8949c5	-1.0725638
1	0xc02b71dd	-2.6788247

conv2.1.residual.0.bias f4 [2]
0	0x3e03e6f7	0.12881075
1	0xc01f0133	-2.4844482

conv2.1.residual.0.running_mean f4 [2]
0	0xc1e7c842	-28.972782
1	0xc2123aee	-36.55755

conv2.1.residual.0.running_var f4 [2]
0	0x447786fa	990.109
1	0x4430e564	707.5842

conv2.1.residual.2.weight f4 [2, 2, 3, 3]
0	0x4037cc36	2.871839
1	0x3fd412aa	1.6568196
2	0x3fcdeac4	1.608727
3	0x401626a0	2.3461075
4	0x4025093d	2.5786889
5	0x3ff3ea84	1.9055943
6	0x3fb3ec74	1.4056535
7	0x3ff8b370	1.942976
8	0x3fe986ca	1.8244259
9	0x3faa8b9e	1.3323858
10	0x3f938f9e	1.1528203
11	0x40426263	3.037255
12	0x40036df0	2.053585
13	0x408597ce	4.174781
14	0x40713680	3.7689514
15	0xbe4ab329	-0.19794907
16	0xbfa2745d	-1.2691761
17	0x402cecde	2.7019572
18	0x40374718	2.8637142
19	0xbf996dba	-1.1986611
20	0x3cbb519d	0.022866065
21	0x3fff11f6	1.9927356
22	0x3f09132c	0.5354488
23	0x3f15c199	0.5849853
24	0xbd9306f2	-0.07179059
25	0xbf86128f	-1.0474414
26	0x3f8e69e7	1.1126069
27	0x407144f2	3.769833
28	0xc00bc50a	-2.1839013
29	0xbf13d7ea	-0.57751334
30	0x40907b69	4.5150647
31	0xbe49b930	-0.1969955
32	0x3f92898a	1.1448224
33	0x3f007025	0.5017112
34	0x3f2a50e6	0.6652969
35	0x405d972b	3.4623516

conv2.1.residual.2.bias f4 [2]
0	0x38284f84	4.0128376e-05
1	0xb686508a	-4.002887e-06

conv2.1.residual.3.weight f4 [2]
0	0xbf05ba99	-0.5223785
1	0x40325549	2.7864554

conv2.1.residual.3.bias f4 [2]
0	0x40060d0e	2.0945468
1	0x4083a053	4.113321

conv2.1.residual.3.running_mean f4 [2]
0	0x41676f9d	14.464749
1	0x40c90d48	6.2828712

conv2.1.residual.3.running_var f4 [2]
0	0x446f8a98	958.1655
1	0x435d1e19	221.11757

conv2.1.residual.5.weight f4 [2, 2, 3, 3]
0	0xbf38b114	-0.721452
1	0xbf8b1373	-1.086531
2	0xbeb5a32b	-0.3547605
3	0x3d442fed	0.047897268
4	0xbf957e42	-1.1679156
5	0x401d07f0	2.4536095
6	0x3f715a16	0.94278085
7	0xc007713b	-2.116286
8	0xbf760dab	-0.96114606
9	0xbf99cc0b	-1.2015394
10	0xbfd6f7eb	-1.6794409
11	0xc0539888	-3.3061848
12	0xbf7103d2	-0.94146454
13	0xbf04765b	-0.51743096
14	0xbf89a31e	-1.0752904
15	0xbfe26a08	-1.7688608
16	0xbf7f3e73	-0.99704665
17	0x3f9fc438	1.2481756
18	0x3fedfb0a	1.8592236
19	0xbf55821d	-0.8340166
20	0x3f12a2a5	0.57279426
21	0x40762a95	3.846349
22	0x4055a780	3.3383484
23	0x3e625497	0.22102581
24	0x3ea6a42d	0.3254713
25	0x3f6a4f35	0.9152711
26	0x3f8dcf63	1.1078914
27	0xbf6af06b	-0.917731
28	0x3e1f7c3f	0.1557474
29	0xbf38cf5e	-0.7219142
30	0x3f2aa27a	0.6665417
31	0x3e3959bc	0.18100637
32	0xbf66e142	-0.90187466
33	0x4014c8f9	2.3247664
34	0xbf18fb45	-0.59758407
35	0xc01cff93	-2.453099

conv2.1.residual.5.bias f4 [2]
0	0x39fbc40a	0.0004802051
1	0xb9ca5e62	-0.00038598763

conv2.2.residual.0.weight f4 [2]
0	0x3eddc9bd	0.43317977
1	0x404fca36	3.246717

conv2.2.residual.0.bias f4 [2]
0	0x3f4c5abf	0.7982597
1	0x4034253f	2.8147733

conv2.2.residual.0.running_mean f4 [2]
0	0xc29732f0	-75.59949
1	0xc1b3df15	-22.483927

conv2.2.residual.0.running_var f4 [2]
0	0x45429974	3113.5908
1	0x44abb893	1373.768

conv2.2.residual.2.weight f4 [2, 2, 3, 3]
0	0x3c5d3585	0.01350153
1	0xbe280131	-0.16406704
2	0xbf290f2b	-0.6603877
3	0xbdc5ea43	-0.096638225
4	0xbe9f0a56	-0.31062573
5	0xbf52215f	-0.8208217
6	0x3e29b8ec	0.16574448
7	0x3d1ece77	0.03877112
8	0xbea553ea	-0.32290584
9	0x3dee30c3	0.11630394
10	0x3d128bdd	0.035777915
11	0xbe575805	-0.2102967
12	0x3e444cd5	0.19169934
13	0x3e6079ce	0.21921465
14	0xbece62c5	-0.4030973
15	0x3eb3e47d	0.3513526
16	0x3eef2809	0.46710232
17	0x3dbb0eca	0.0913368
18	0xbe2df942	-0.16989616
19	0xbe06578c	-0.13119334
20	0xbf4c9915	-0.79921085
21	0xbdba3ffb	-0.090942346
22	0x3f0225bf	0.50838846
23	0xbf1f61da	-0.62258685
24	0x3e3df2f6	0.18549713
25	0x3df839a2	0.121203676
26	0xbedaa458	-0.4270351
27	0xbf069ea1	-0.525858
28	0x3e22a003	0.15881352
29	0xbf6a1f10	-0.9145365
30	0x3ee01019	0.43762282
31	0x4090faf6	4.530635
32	0x3fc2aa79	1.5208274
33	0x3e2f847f	0.17140387
34	0x406c0445	3.6877606
35	0x4085f1a5	4.1857476

conv2.2.residual.2.bias f4 [2]
0	0x38968caf	7.178762e-05
1	0x3858fd14	5.173411e-05

conv2.2.residual.3.weight f4 [2]
0	0xbeaec5a8	-0.34135175
1	0x3ffbdc5f	1.9676627

conv2.2.residual.3.bias f4 [2]
0	0x3de60704	0.11231807
1	0x3fdfb34b	1.7476591

conv2.2.residual.3.running_mean f4 [2]
0	0x3f790275	0.97269374
1	0x42272fe0	41.796753

conv2.2.residual.3.running_var f4 [2]
0	0x4067bb1f	3.620796
1	0x44279c87	670.44574

conv2.2.residual.5.weight f4 [2, 2, 3, 3]
0	0xbec2e455	-0.3806483
1	0xbf09d0df	-0.53834337
2	0x3e2fadd4	0.17156154
3	0xbe994f36	-0.29943246
4	0xbeefa583	-0.46805963
5	0xbe2fa678	-0.17153347
6	0xbea39581	-0.3195
7	0xbecdaacb	-0.40169367
8	0xbdc9e716	-0.09858529
9	0xc0508afd	-3.2584832
10	0xc02abf01	-2.667908
11	0xbe55c2ab	-0.20875041
12	0xc023449f	-2.5510633
13	0xbff2eefd	-1.8979183
14	0xbf7577e6	-0.95886075
15	0xc04f39e6	-3.2379088
16	0xbf415b18	-0.75529623
17	0xbf2dc7ea	-0.6788317
18	0x3e02b5a0	0.12764597
19	0xbeeb98ad	-0.4601492
20	0x3ec58c4a	0.38583595
21	0x3e4892bb	0.19587223
22	0xbf328166	-0.69728696
23	0xbe510289	-0.20411123
24	0x3dae4522	0.0850928
25	0xbe3070c5	-0.17230518
26	0xbd6c1546	-0.057637475
27	0xc02e1375	-2.7199376
28	0xbf8a1f47	-1.0790795
29	0xc027eefd	-2.6239617
30	0xc031786d	-2.7729752
31	0xc02441b1	-2.5665095
32	0xc0366c7d	-2.8503716
33	0x3f92557b	1.1432337
34	0x3d313033	0.043258857
35	0xc02a1326	-2.6574187

conv2.2.residual.5.bias f4 [2]
0	0x3a3b0787	0.00071346055
1	0xba364b82	-0.00069540006

conv2.3.residual.0.weight f4 [2]
0	0x3d8ed641	0.069744594
1	0x409ea452	4.9575586

conv2.3.residual.0.bias f4 [2]
0	0xbe361c13	-0.17784147
1	0xbe30d47c	-0.17268556

conv2.3.residual.0.running_mean f4 [2]
0	0xc2d6d21d	-107.41038
1	0xc257e5bc	-53.97435

conv2.3.residual.0.running_var f4 [2]
0	0x45030503	2096.3132
1	0x4413c0ac	591.0105

conv2.3.residual.2.weight f4 [2, 2, 3, 3]
0	0x3db7ef2d	0.08981166
1	0x3e2c5152	0.16827896
2	0x3df03ba4	0.117301255
3	0x3de9c6dd	0.11414883
4	0x3e20f666	0.15718994
5	0x3d7d0fa1	0.061782483
6	0x3dc6c1ae	0.0970491
7	0x3ddf947a	0.109169915
8	0x3cfb37f1	0.030666323
9	0xbe6bd0f0	-0.23028922
10	0xc0177d47	-2.3670213
11	0xc022b8f8	-2.5425396
12	0x403df5b1	2.9681208
13	0x3fa8ff6c	1.3202949
14	0xc05e0e33	-3.4696167
15	0x4054793d	3.3198998
16	0xbfe503b3	-1.7891754
17	0x3db49b8c	0.08818731
18	0x3da5e6e6	0.08100681
19	0x3dc5a6cd	0.09650955
20	0x3dc4535d	0.09586213
21	0x3d9d0c2a	0.07668336
22	0x3dac2e2e	0.084072456
23	0x3ddaa15d	0.10675309
24	0x3da4c518	0.08045405
25	0x3d7bc923	0.061471116
26	0x3d9086eb	0.070569836
27	0x3e800d40	0.2501011
28	0x3e815186	0.2525751
29	0xbdc64633	-0.09681358
30	0xbdedc090	-0.11608994
31	0x3f184b18	0.59489584
32	0xbea784f9	-0.32718638
33	0x3ea9a843	0.33136186
34	0x3eb792ff	0.35854337
35	0xbf8f8ed6	-1.1215465

conv2.3.residual.2.bias f4 [2]
0	0x3a364b3e	0.0006953961
1	0xb765cbff	-1.369696e-05

conv2.3.residual.3.weight f4 [2]
0	0xbfce1eb2	-1.6103117
1	0x3eb8f476	0.3612401

conv2.3.residual.3.bias f4 [2]
0	0x40000e4e	2.000873
1	0xbe2e0cc4	-0.16997057

conv2.3.residual.3.running_mean f4 [2]
0	0xc08d10f7	-4.408321
1	0x3ddbedd0	0.107387185

conv2.3.residual.3.running_var f4 [2]
0	0x431c32df	156.19872
1	0x412ac75b	10.673671

conv2.3.residual.5.weight f4 [2, 2, 3, 3]
0	0x3e8b77f2	0.2723995
1	0xbfddfcd9	-1.7342788
2	0xbf6622fd	-0.8989714
3	0xbf52c2db	-0.82328576
4	0xc01e2a48	-2.4713306
5	0xc037af54	-2.8700762
6	0xc0091873	-2.1421173
7	0xbfbfa549	-1.4972316
8	0xc08b433f	-4.3519588
9	0xbf2d330a	-0.67656004
10	0x3ee93864	0.45550835
11	0xbe9a243a	-0.30105764
12	0xbf366c92	-0.71259415
13	0xbca5fdf1	-0.02026269
14	0xbefa9a90	-0.48946047
15	0xbf137658	-0.57602453
16	0x3ecfaa7c	0.40559757
17	0xbf33a829	-0.7017847
18	0xbf45e204	-0.77298
19	0xbf1ff955	-0.62489825
20	0x3fd007f5	1.6252428
21	0x4004bc1e	2.0739818
22	0xc01f60eb	-2.4902904
23	0xc0325b04	-2.7868052
24	0x3f9d9612	1.2311423
25	0xc0a248fe	-5.07141
26	0xbff0e342	-1.8819354
27	0xbf1ddd9f	-0.6166629
28	0xbf340c1f	-0.70330995
29	0xbe87df95	-0.26537767
30	0xbdacf04e	-0.08444272
31	0x3dd6283f	0.10456895
32	0xbdea46a2	-0.114392534
33	0x3e92dddd	0.28684893
34	0xbdb534ac	-0.08847937
35	0xbe2170c6	-0.15765676

conv2.3.residual.5.bias f4 [2]
0	0x3a7edeb8	0.0009722519
1	0xbb0c0f2e	-0.0021371352

conv2.4.residual.0.weight f4 [2]
0	0xbe8aa7f9	-0.27081278
1	0xbdae6560	-0.085154295

conv2.4.residual.0.bias f4 [2]
0	0x3eb89f09	0.36058834
1	0xbe804bd1	-0.25057843

conv2.4.residual.0.running_mean f4 [2]
0	0xc30b5d06	-139.36337
1	0xc28ebeba	-71.37251

conv2.4.residual.0.running_var f4 [2]
0	0x45122e8d	2338.9094
1	0x4441b704	774.8596

conv2.4.residual.2.weight f4 [2, 2, 3, 3]
0	0xbe9b3957	-0.30317184
1	0xbe67f6ea	-0.22652784
2	0xbebbb1cd	-0.3665909
3	0xbe398671	-0.18117692
4	0xbe1c2cf1	-0.15251519
5	0xbee7da70	-0.45283842
6	0xbe8c75fc	-0.27433765
7	0xbe59af83	-0.21258359
8	0xbe448973	-0.19193058
9	0x3e8b8882	0.27252585
10	0xbbab264a	-0.0052230703
11	0x3e84c605	0.25932327
12	0x3e899f23	0.26879224
13	0x3be584e6	0.007004368
14	0x3e44f38e	0.19233534
15	0x3e6c394f	0.23068736
16	0x3c1740e9	0.009231784
17	0x3db2b8bd	0.08726642
18	0xbcc370ef	-0.023857562
19	0x3e820eb1	0.25401834
20	0x3dd82d32	0.10555495
21	0xbe44eab4	-0.19230157
22	0x3f1bb1bb	0.6081807
23	0x3ec24b91	0.37948278
24	0x3ececf56	0.4039256
25	0x3f1dc679	0.6163097
26	0x3f9460c0	1.1592026
27	0x3d004674	0.03131719
28	0x3e333304	0.1749993
29	0xbdb13668	-0.08652955
30	0x3d31de0c	0.04342465
31	0x3e2bc9a3	0.16776137
32	0xbdebadf4	-0.11507788
33	0xbcbc1b56	-0.022962254
34	0x3e2b3d5e	0.16722628
35	0xbe0c0ba7	-0.1367632

conv2.4.residual.2.bias f4 [2]
0	0xb945aada	-0.00018851031
1	0xb9efde98	-0.00045751478

conv2.4.residual.3.weight f4 [2]
0	0x3f3145b5	0.6924699
1	0x3fb5b7e8	1.4196749

conv2.4.residual.3.bias f4 [2]
0	0x3e3784ee	0.17921802
1	0xbe1fe137	-0.15613256

conv2.4.residual.3.running_mean f4 [2]
0	0xbf56dcb0	-0.8393049
1	0x3f96e277	1.1787862

conv2.4.residual.3.running_var f4 [2]
0	0x3ea9c49a	0.33157808
1	0x3f3a41b2	0.72756493

conv2.4.residual.5.weight f4 [2, 2, 3, 3]
0	0x3ea943b0	0.33059454
1	0x3ee10ae4	0.4395362
2	0x3e3989f3	0.1811903
3	0x3ed0c0fb	0.40772232
4	0x3f12efd2	0.57397187
5	0x3ec6ee71	0.3885379
6	0x3f1e6671	0.61875063
7	0x3f595084	0.8488848
8	0x3f3f8cc2	0.74824154
9	0x3fbcb995	1.4744135
10	0x3f5a1a24	0.8519614
11	0x3f8042c5	1.0020376
12	0x3fcac3c2	1.584099
13	0x3f50d6b1	0.81577593
14	0x3f8ee895	1.1164728
15	0x3fa8b534	1.3180299
16	0x3f59e6df	0.85117906
17	0x3f7237be	0.94616306
18	0xbe4ef549	-0.20210756
19	0xbec68c65	-0.38778988
20	0xbe31d9f4	-0.17368299
21	0xbe6a6ac4	-0.2289229
22	0xbf528f8e	-0.822503
23	0xbef38fb5	-0.47570577
24	0xbee17475	-0.44034162
25	0xbf994719	-1.1974822
26	0xbf40f188	-0.7536855
27	0xbf2a93c4	-0.6663172
28	0xbd471e30	-0.048612773
29	0xbf16facf	-0.58976454
30	0xbf106c9f	-0.5641574
31	0x3db1d23c	0.08682677
32	0x3e3aa6ce	0.18227693
33	0xbea6bc5c	-0.32565582
34	0xbe47bf4f	-0.19506572
35	0xbffe0c54	-1.9847512

conv2.4.residual.5.bias f4 [2]
0	0x3a268549	0.00063522585
1	0xb9e18b1a	-0.00043018983

conv2.5.residual.0.weight f4 [2]
0	0xc0083ec4	-2.128831
1	0xbfcc773c	-1.5973887

conv2.5.residual.0.bias f4 [2]
0	0x3f336be6	0.70086515
1	0x3fab2da7	1.3373307

conv2.5.residual.0.running_mean f4 [2]
0	0xc305a1d4	-133.63214
1	0xc29557f9	-74.67182

conv2.5.residual.0.running_var f4 [2]
0	0x44ce6fca	1651.4934
1	0x44678e96	926.2279

conv2.5.residual.2.weight f4 [2, 2, 3, 3]
0	0xbfd7c353	-1.6856483
1	0xbfe27758	-1.7692671
2	0xbe9d566e	-0.30730003
3	0xc043733f	-3.053909
4	0xc01ae334	-2.4201174
5	0x3f02ffe7	0.51171726
6	0xc0081221	-2.1261065
7	0xbf8403f8	-1.0313711
8	0x3f8406ca	1.0314572
9	0xbc96392f	-0.018337814
10	0xbf3b9e20	-0.73288155
11	0xbd20477b	-0.03913067
12	0x3e640394	0.2226699
13	0x3f547811	0.82995707
14	0x400fc373	2.2463043
15	0x3f18ad48	0.59639406
16	0x40030b86	2.0475783
17	0x3ffe29ee	1.9856546
18	0xbeaa8ccd	-0.33310547
19	0xbda95faa	-0.082701996
20	0x3df02950	0.1172663
21	0x3d37649c	0.044773683
22	0x3cb575da	0.022150923
23	0x3eaa0f94	0.3321501
24	0x3e620af4	0.22074491
25	0x3de8217d	0.113345124
26	0x3e9b3c55	0.30319467
27	0x3ef337d7	0.4750354
28	0x3e97b199	0.29627684
29	0x3f019ab8	0.5062671
30	0x3f0a289a	0.53968203
31	0x3f4a7bb0	0.7909498
32	0x3f3f5710	0.7474222
33	0x3eff229d	0.49831095
34	0x3e4c79ee	0.19968387
35	0x3da9b886	0.08287148

conv2.5.residual.2.bias f4 [2]
0	0x36869e4c	4.0119394e-06
1	0xb9201f8a	-0.00015270538

conv2.5.residual.3.weight f4 [2]
0	0xbde3dc85	-0.11126045
1	0x3f057b9f	0.52141756

conv2.5.residual.3.bias f4 [2]
0	0x3f65b135	0.8972352
1	0x3f2e2f53	0.6804096

conv2.5.residual.3.running_mean f4 [2]
0	0xc01199bd	-2.2750084
1	0x40d543cf	6.6645274

conv2.5.residual.3.running_var f4 [2]
0	0x433ce1e8	188.88245
1	0x4224d1cc	41.20488

conv2.5.residual.5.weight f4 [2, 2, 3, 3]
0	0xbe793588	-0.24336827
1	0x3f13488a	0.5753256
2	0x3f58a18e	0.8462151
3	0xbe9c9515	-0.3058249
4	0x3f5b0a86	0.8556293
5	0x3f81a31d	1.0127903
6	0x3e81ce33	0.2535263
7	0x3f90c9f5	1.1311632
8	0x3f986c8e	1.1908128
9	0xbe82db42	-0.25557905
10	0xbeb7d4b8	-0.3590448
11	0xbed4f57e	-0.41593546
12	0xbf11d4cb	-0.5696532
13	0xbf10fb01	-0.56633
14	0xbec847d0	-0.3911729
15	0xbf439389	-0.76396996
16	0xbf391de0	-0.7231121
17	0xbe6d4a8a	-0.23172966
18	0xbf0bc967	-0.5460419
19	0xbf690ab0	-0.9103193
20	0xbeee1288	-0.46498513
21	0xbede20f0	-0.43384504
22	0xbf98eaab	-1.1946615
23	0xbcbc8dcb	-0.02301683
24	0xbdd365bd	-0.103221394
25	0xbef28422	-0.47366434
26	0x3fadda24	1.3582196
27	0x3f1b5e95	0.60691196
28	0x3f45636d	0.77104837
29	0x3f173f35	0.5908082
30	0x3f1c1335	0.6096681
31	0x3f50ed6c	0.8161228
32	0x3f0a67e6	0.54064786
33	0x3f3d4054	0.7392628
34	0x3f73d6fc	0.95249915
35	0x3ec7f5c0	0.3905468

conv2.5.residual.5.bias f4 [2]
0	0x3a84d137	0.0010133152
1	0xb9c48f48	-0.00037490786

conv3.0.residual.0.weight f4 [2]
0	0xbc334827	-0.010942495
1	0xbdc6de66	-0.09710388

conv3.0.residual.0.bias f4 [2]
0	0x3e139e7b	0.14415924
1	0x3dfc5b9b	0.1232216

conv3.0.residual.0.running_mean f4 [2]
0	0xc303d6e7	-131.83946
1	0xc2924ecb	-73.15389

conv3.0.residual.0.running_var f4 [2]
0	0x44db46a0	1754.207
1	0x44423b79	776.92926

conv3.0.residual.2.weight f4 [1, 2, 3, 3]
0	0x3d5e4cfb	0.054272633
1	0x3d945775	0.072432436
2	0xbcc1cf86	-0.023658525
3	0x3c7b2f1e	0.015331058
4	0x3e090a39	0.13382806
5	0x3cd0853d	0.025454158
6	0x3d5f4a66	0.05451431
7	0x3e0539db	0.13010351
8	0x3ca5ba77	0.020230515
9	0x3dce4141	0.1007104
10	0x3db7caac	0.089742035
11	0xbe41cc21	-0.18925525
12	0xbc9d05b3	-0.019167757
13	0x3d43f985	0.047845382
14	0xbe8cdf6b	-0.27514204
15	0x3baeea87	0.0053380164
16	0x3e158144	0.14600092
17	0xbea99b2e	-0.33126205

conv3.0.residual.5.weight f4 [1, 1, 3, 3]
0	0xbb967492	-0.004591533
1	0xbd26b809	-0.040702853
2	0x3e2b4f0e	0.16729376
3	0xbde9f633	-0.11423912
4	0x3d0a30e5	0.033738036
5	0xbcbd0a41	-0.023076179
6	0xbc136542	-0.00899631
7	0x3d8b04ae	0.06788002
8	0x3ceec0f5	0.029144743

conv3.0.shortcut.0.weight f4 [1, 2, 1, 1]
0	0xbe39adfc	-0.18132776
1	0x3f0f5a99	0.55997616

conv3.1.residual.2.weight f4 [1, 1, 3, 3]
0	0x3ef4cb1b	0.47811207
1	0xbf1e2957	-0.6178183
2	0x3edc4b97	0.4302642
3	0xbec12f7f	-0.3773155
4	0xbf7905c7	-0.9727444
5	0x3ed3ed34	0.4139191
6	0xbe936421	-0.2878733
7	0x3e7a5c2c	0.24449223
8	0x3e5f8cc5	0.21831043

conv3.1.residual.5.weight f4 [1, 1, 3, 3]
0	0x3eba8e30	0.36436605
1	0x3e27ccf7	0.16386782
2	0xbdad1a5b	-0.084522925
3	0x3d4d3536	0.050099574
4	0xbeae2c7b	-0.3401831
5	0x3ea2ec61	0.31820968
6	0xbeb59a4a	-0.35469276
7	0xbe8a3c56	-0.26999158
8	0x3e8d818a	0.27637893

conv3.2.residual.2.weight f4 [1, 1, 3, 3]
0	0xbea24973	-0.31696662
1	0xbe56e84e	-0.20987055
2	0xbda63658	-0.08115834
3	0xbf61a1bc	-0.8813741
4	0x3e7a5360	0.24445868
5	0xbec65507	-0.38736746
6	0xbf614e4a	-0.88010085
7	0x3e66ecb3	0.22551231
8	0x3ee417f8	0.44549537

conv3.2.residual.5.weight f4 [1, 1, 3, 3]
0	0x3eee1471	0.4649997
1	0xbee7fa6c	-0.45308244
2	0xbee74966	-0.45173186
3	0x3ee7b9d0	0.4525895
4	0xbe819b81	-0.25313953
5	0x3ee256cf	0.44206855
6	0x3f6ab584	0.9168322
7	0xbee74979	-0.45173243
8	0xbe5bf3f9	-0.21479787

conv3.3.residual.2.weight f4 [1, 1, 3, 3]
0	0xbfeafc82	-1.8358309
1	0xbec2ecb5	-0.38071218
2	0xbfa12bbe	-1.2591474
3	0xbfe23c36	-1.7674625
4	0xbf00f91c	-0.5038011
5	0xbfa46de8	-1.2846041
6	0xc08923f1	-4.2856374
7	0xbf98a909	-1.1926585
8	0xbe941d58	-0.28928638

conv3.3.residual.5.weight f4 [1, 1, 3, 3]
0	0xbfb2252c	-1.3917594
1	0xbffc2ea8	-1.9701738
2	0xc0612f94	-3.518529
3	0xbf49c3c9	-0.7881437
4	0xbfcc9f2b	-1.5986074
5	0xbfcc8e7f	-1.5980986
6	0xc009bbcb	-2.152087
7	0xc0704dfe	-3.7547603
8	0xbf1c115e	-0.60964

conv3.4.residual.2.weight f4 [1, 1, 3, 3]
0	0xbed6861d	-0.41899195
1	0x3cc4b859	0.024013685
2	0x3c356456	0.011071285
3	0x3db5d5c5	0.08878664
4	0x3d9325b2	0.07184924
5	0xbec5d879	-0.38641718
6	0xbf00c95a	-0.5030724
7	0xbf4766dc	-0.77891326
8	0xc0aaa44c	-5.332556

conv3.4.residual.5.weight f4 [1, 1, 3, 3]
0	0xbec92b94	-0.3929106
1	0x4095c0d5	4.679789
2	0x40f7fa69	7.7493176
3	0x3fbeacd8	1.4896498
4	0x3fcd7fb9	1.6054603
5	0x400a9d92	2.1658673
6	0xbf1b0767	-0.6055817
7	0x3ec4267f	0.3831062
8	0xbfb83ff6	-1.4394519

conv3.5.residual.2.weight f4 [1, 1, 3, 3]
0	0x3de05219	0.10953159
1	0x4005494e	2.0825992
2	0x3fe29ec1	1.7704698
3	0xbe6759e2	-0.22592881
4	0xbfcbd3e1	-1.5924035
5	0xbe2396d2	-0.15975502
6	0x4022fc95	2.5466664
7	0xc0a90e09	-5.2829633
8	0xc07c3eb3	-3.9413269

conv3.5.residual.5.weight f4 [1, 1, 3, 3]
0	0x3f7971ef	0.97439474
1	0xc05022bf	-3.2521207
2	0xbf88b8a1	-1.0681344
3	0xbf4295db	-0.7600991
4	0xbfe34578	-1.7755575
5	0x3f83f401	1.0308839
6	0x4101196c	8.0687065
7	0x404e3a3d	3.2223046
8	0x40f8c392	7.7738733

conv4.0.residual.2.weight f4 [1, 1, 3, 3]
0	0xc007a357	-2.1193445
1	0xbfd99402	-1.6998293
2	0x3fffb42d	1.997686
3	0xbf5ca9e9	-0.8619676
4	0xc0469e33	-3.1034057
5	0x403379d2	2.8043103
6	0x3f412fd4	0.75463605
7	0xbe850fad	-0.25988522
8	0xbf937b39	-1.152198

conv4.0.residual.5.weight f4 [1, 1, 3, 3]
0	0xbfa52eff	-1.2904967
1	0x3f437b3d	0.7635992
2	0xbfde0e7b	-1.7348169
3	0xc01a0ca7	-2.4070222
4	0xbfb2a9ae	-1.3958032
5	0x405bbbbd	3.4333336
6	0xbed317d1	-0.41229108
7	0xbf7de47d	-0.9917677
8	0xbf878c84	-1.0589757

conv4.1.residual.2.weight f4 [1, 1, 3, 3]
0	0x4019a8da	2.400931
1	0x401fb18d	2.4952118
2	0x401f69f6	2.4908423
3	0xbff74eac	-1.9320884
4	0x4022221b	2.5333316
5	0x3d0b3397	0.033984747
6	0xbccd8cd0	-0.025091559
7	0x3ea3ee49	0.32017735
8	0xbf055e4f	-0.5209703

conv4.1.residual.5.weight f4 [1, 1, 3, 3]
0	0x3f60e452	0.8784839
1	0xbfb4c324	-1.4122052
2	0x3f550748	0.83214235
3	0x3f7642da	0.9619576
4	0xc074ef08	-3.8270893
5	0x404a7df3	3.1639373
6	0xc0581ecf	-3.3768804
7	0xc041106e	-3.0166278
8	0xbeb16a4b	-0.34651408

conv4.2.residual.2.weight f4 [1, 1, 3, 3]
0	0x3e056001	0.13024904
1	0xbf171a59	-0.5902458
2	0xbed10681	-0.40825275
3	0x3fcd135d	1.6021534
4	0x3f85d801	1.0456544
5	0xbfbdf570	-1.4840527
6	0x3f4af266	0.7927612
7	0x40e17db8	7.0465965
8	0x3f681147	0.90651363

conv4.2.residual.5.weight f4 [1, 1, 3, 3]
0	0xc081c62f	-4.0554423
1	0xc0b4a6bd	-5.645354
2	0xbf7b6a97	-0.9820952
3	0xbf8b79f2	-1.089659
4	0xbf32b77c	-0.69811225
5	0xbe76c408	-0.24098217
6	0x3e5d9f6b	0.21642844
7	0x3e4ce8ca	0.20010677
8	0x3deb2e97	0.11483496

conv4.3.residual.2.weight f4 [1, 1, 3, 3]
0	0xbe222d9e	-0.15837714
1	0x3f0e2c31	0.5553618
2	0xbf6d7248	-0.92752504
3	0x3f70c185	0.9404529
4	0xc0e65734	-7.198145
5	0x3f8f8733	1.1213135
6	0x3f2b8acb	0.67008656
7	0x3db2528d	0.087071516
8	0xbf4f960c	-0.8108833

conv4.3.residual.5.weight f4 [1, 1, 3, 3]
0	0x3eec9cdf	0.46213433
1	0x3f3cf1dc	0.7380655
2	0x3ed4ca4f	0.415606
3	0xc000411b	-2.0039737
4	0xc0db3dd2	-6.8512964
5	0xbfb70028	-1.4296923
6	0xbf8f62ce	-1.1202028
7	0x40077721	2.116646
8	0x3f5d051d	0.8633593

conv4.4.residual.2.weight f4 [1, 1, 3, 3]
0	0xbd74eb69	-0.059794817
1	0xba30f40a	-0.0006750232
2	0xc105840f	-8.344741
3	0x3ebc0fb0	0.3673072
4	0x3c886aae	0.016652431
5	0x3c771d28	0.015082635
6	0xbe2247ac	-0.15847653
7	0x3bea50ff	0.007150769
8	0xbc88a363	-0.016679471

conv4.4.residual.5.weight f4 [1, 1, 3, 3]
0	0xbe03b16b	-0.12860648
1	0xbdc95b36	-0.0983185
2	0x3e8ed0cc	0.27893674
3	0xbd5cb828	-0.053886563
4	0x3e1504b8	0.14552581
5	0xbe7bf976	-0.2460688
6	0xc07b9ff6	-3.9316382
7	0xbd8ee438	-0.06977123
8	0x3e0664cb	0.13124387

conv4.5.residual.2.weight f4 [1, 1, 3, 3]
0	0x3f2c682f	0.6734647
1	0x3e9c6b0f	0.3055043
2	0xbe1c8a39	-0.15287103
3	0x40c78b35	6.235743
4	0x400d7ffa	2.210936
5	0xbf8cca37	-1.0999211
6	0xc014d2ed	-2.325374
7	0xbf8711b4	-1.0552278
8	0xbdb98c11	-0.09059919

conv4.5.residual.5.weight f4 [1, 1, 3, 3]
0	0xc06187b5	-3.523908
1	0x3f0887ae	0.5333203
2	0xbea35e94	-0.31908095
3	0x416468c9	14.275582
4	0x40194e6c	2.3954115
5	0x4033b6ec	2.8080397
6	0x3d2b1db9	0.041776393
7	0x3eeb596d	0.45966664
8	0x3ea3201c	0.31860435
