models/cifar10_narrow_resnet.ckpt (torch, 228847 bytes, 109 tensors)

conv1.weight f4 [1, 3, 3, 3]
00000000: 4746 c63d 43de 7a3e 4435 c5bf 8f33 843f
00000010: 9d9f 223f c3b7 5c3f 2ac9 5f3f 2468 1d3f
00000020: bc86 fb3e 6e18 a33f cd2c b5be 0116 25bf
00000030: 202c f63e 0825 acbc 5e16 883f 4bdd 92bf
00000040: 5fa9 883d cfef 92bf 35ec aabe 8f60 16bf
00000050: 4677 9abf 46a4 0cc0 1ac0 1c3f da3e 2d3f
00000060: fe52 013d 1215 383f 81e5 93bf
0.09681373 0.24498849 -1.540688 1.0328234 0.635248 0.862179 0.87416327 0.6148703
0.49126232 1.274183 -0.35385743 -0.644867 0.4808054 -0.021013752 1.0631826 -1.1473783
0.0667293 -1.1479434 -0.33383337 -0.58741087 -1.2067649 -2.1975265 0.61230624 0.6767403
0.03157329 0.7190715 -1.1554414

layer1.0.conv1.weight f4 [1, 1, 3, 3]
00000000: 864b 143f 939d debd 4238 b63f 2ab4 24bf
00000010: 0b6d 2ec0 9865 e73e 7441 0ebf 6d03 333f
00000020: 4283 243f
0.5792774 -0.10869899 1.4235919 -0.6433741 -2.7254055 0.45194697 -0.55568624 0.699271
0.64262784

layer1.0.conv2.weight f4 [1, 1, 3, 3]
00000000: c195 2b40 3ead 5fbe e112 573f 8bd1 1a3f
00000010: 8874 0fc0 8057 b83f ff12 18be 0ff2 6c3e
00000020: 9870 a5bf
2.6810153 -0.2184343 0.8401318 0.6047599 -2.2414875 1.4401703 -0.14850996 0.23139213
-1.2924986

layer1.1.conv1.weight f4 [1, 1, 3, 3]
00000000: fec5 a2be c53e 08bf a899 efbf fe70 ffbe
00000010: bd4c e63e bb65 23be 1462 293d e30c 073f
00000020: 0095 94be
-0.3179168 -0.5322078 -1.8718767 -0.49890894 0.44980422 -0.15956776 0.0413533 0.5275404
-0.29019928

layer1.1.conv2.weight f4 [1, 1, 3, 3]
00000000: 4357 d8be b14b 05bf ab52 86bf 5853 4cbf
00000010: b76c 16bf c57f 14bd 70ab 583f e209 17be
00000020: 5a21 a2bf
-0.42254075 -0.5206862 -1.0493978 -0.7981467 -0.58759636 -0.036254663 0.8463659 -0.14749864
-1.2666428

layer1.2.conv1.weight f4 [1, 1, 3, 3]
00000000: 8d1c 77bf 9226 0ec0 a753 d33d aa7c 32bf
00000010: 6df6 16bf 4205 a13e aa23 0f3c ad3b db3f
00000020: 8584 66bf
-0.9652794 -2.2211041 0.1031869 -0.6972147 -0.58969766 0.31449324 0.00873653 1.7127587
-0.9004596

layer1.2.conv2.weight f4 [1, 1, 3, 3]
00000000: 0d4d 17be 6a3c 233f f4d6 a3be 54d9 0d3e
00000010: ce83 99bd 1575 603f ed86 a2be 4e5c a83e
00000020: c15a 4e3d
-0.14775486 0.6376406 -0.31999934 0.13852435 -0.07495843 0.87678653 -0.31743565 0.32882923
0.05037952

layer1.3.conv1.weight f4 [1, 1, 3, 3]
00000000: 9f49 00bf 8dad cd3e 05a1 8e3f d4dc 9dbe
00000010: 7d5b 813f bda9 1f3f 7798 ccbf ce30 08bf
00000020: 0f01 ddbd
-0.50112337 0.4017147 1.1142889 -0.3083254 1.0106045 0.62368375 -1.5984029 -0.5319947
-0.107912175

layer1.3.conv2.weight f4 [1, 1, 3, 3]
00000000: db7b e13c 2e6e 83be aaf9 813f da7e 5d3f
00000010: 3f3d 34bf 2287 8ebf 0045 883f eafe 133f
00000020: a4b7 8f3f
0.02752488 -0.25669998 1.0154316 0.86521685 -0.70405954 -1.1134989 1.0646057 0.57810843
1.1227918

layer1.4.conv1.weight f4 [1, 1, 3, 3]
00000000: a4c0 133e ad84 8b3e 2046 81bc 1dea 54bf
00000010: f288 9bbf 3c4c 453f 9468 1340 39c5 19bf
00000020: fa5c a23f
0.14428955 0.2724966 -0.015780509 -0.8316973 -1.2151167 0.7706945 2.303258 -0.6006656
1.2684624

layer1.4.conv2.weight f4 [1, 1, 3, 3]
00000000: 8882 1f3f 8454 223e 3858 80be b308 87bf
00000010: f373 a63d 3f86 d4bf 6998 7b3f 77b9 b2bf
00000020: ea88 2dbf
0.6230855 0.15852553 -0.25067306 -1.054953 0.08127584 -1.6603469 0.98279434 -1.3962849
-0.6778704

layer1.5.conv1.weight f4 [1, 1, 3, 3]
00000000: 304a f03e 1dc7 ff3e 88c6 d1be 84cb a3be
00000010: 9bb3 5ebc f746 48bf e235 d33f 2fb5 d8be
00000020: 6893 a1bf
0.469316 0.499566 -0.4097178 -0.31991208 -0.013592626 -0.78233284 1.6500819 -0.42325732
-1.262311

layer1.5.conv2.weight f4 [1, 1, 3, 3]
00000000: 1027 e9be 2713 5e3e ed97 353e d2c6 0ebf
00000010: b637 e1bd 661d a43f 845f 94be 57f1 5a3f
00000020: e396 69bf
-0.45537615 0.21686994 0.17733736 -0.55772126 -0.10996954 1.2821472 -0.28979123 0.85524505
-0.9124586

layer1.6.conv1.weight f4 [1, 1, 3, 3]
00000000: d336 b03f c4f8 f3bf 6b73 4c3f 4681 093f
00000010: 37de d43e e0d4 b73f 9562 b2bb 396e d4bf
00000020: 6af0 3040
1.3766731 -1.9060292 0.79863614 0.5371288 0.41575786 1.4361839 -0.005443881 -1.6596137
2.7646737

layer1.6.conv2.weight f4 [1, 1, 3, 3]
00000000: cab4 b33f 9c20 f7bf a340 da3f 725a 0840
00000010: b9da 07c0 28e9 963f 8cea 7ebf a753 1840
00000020: 0b9e 77be
1.4039547 -1.9306827 1.7050976 2.1305203 -2.1227248 1.1789904 -0.9957664 2.3801057
-0.24181382

layer1.7.conv1.weight f4 [1, 1, 3, 3]
00000000: 079a 5cbf fcba 42bf 2d67 98bc 4082 f3be
00000010: ae93 1a3f 0e80 ed3f add3 7abf a039 9ebe
00000020: 3f4d 013f
-0.8617253 -0.76066566 -0.018603886 -0.4756031 0.6038159 1.8554704 -0.9797924 -0.3090334
0.50508493

layer1.7.conv2.weight f4 [1, 1, 3, 3]
00000000: db12 a2bd 8126 273f 8677 e73f fa45 0340
00000010: d30a d2bf 8db4 82be 4154 ebbf fed4 903d
00000020: 4502 0a40
-0.07913753 0.6529313 1.8083351 2.051146 -1.6409553 -0.25528374 -1.8385087 0.07071875
2.1563885

layer1.8.conv1.weight f4 [1, 1, 3, 3]
00000000: d6b9 18be 5f51 63bc 4237 c2be be95 46bf
00000010: e9e2 333e 358b d63f cb8f 823f f14f 623f
00000020: 981b 29bf
-0.14914641 -0.013874381 -0.37932783 -0.7757224 0.17567028 1.6761233 1.0200132 0.8840323
-0.6605773

layer1.8.conv2.weight f4 [1, 1, 3, 3]
00000000: 7739 4e3f e6c4 8fbe 10ca c83e f5a9 983e
00000010: 60a4 9f3f b606 ef3f a63d 133e bc31 d93f
00000020: 983e 6f3e
0.80556434 -0.2807991 0.3921666 0.29817167 1.2472038 1.8673923 0.14378986 1.6968303
0.23363721

layer1.9.conv1.weight f4 [1, 1, 3, 3]
00000000: 53e2 a33e fa54 e7be f68b 0dbf 7420 16bf
00000010: 97f1 943f 98ed 023f 64a5 8a3e 7d38 ef3f
00000020: d286 2ebf
0.3200861 -0.4518202 -0.5529169 -0.5864327 1.1636227 0.5114379 0.27079308 1.8689114
-0.6817447

layer1.9.conv2.weight f4 [1, 1, 3, 3]
00000000: f0a3 bd3e 03d6 b43d 4b53 e6be 4922 b43d
00000010: c487 f2be 18e2 3a3f 3d93 123e bac9 03c0
00000020: 1f5b 1bbf
0.37039137 0.08829882 -0.44985422 0.08795602 -0.47369206 0.7300124 0.1431398 -2.0591874
-0.60685915

layer1.10.conv1.weight f4 [1, 1, 3, 3]
00000000: c02d 383f 9c00 843e 1ae8 69bf 34a7 bbbf
00000010: 30e2 1fbf 4719 803e 0cc0 aa3e 1025 bfbf
00000020: fbb3 c33e
0.7194481 0.25781715 -0.91369784 -1.4660401 -0.6245451 0.25019285 0.33349645 -1.4933186
0.38223252

layer1.10.conv2.weight f4 [1, 1, 3, 3]
00000000: 4569 10be 836e 32bf 6c22 413f 1f46 253f
00000010: aaf9 78bf e22f 34bf 611c c3be a096 843e
00000020: 768d 033f
-0.14102657 -0.6969988 0.7544315 0.6456012 -0.9725596 -0.70385563 -0.3810759 0.25896168
0.5138773

layer1.11.conv1.weight f4 [1, 1, 3, 3]
00000000: 7b67 2440 f601 743f 25b0 053f b2fa bf3f
00000010: b270 9dbf 9208 ca3e a297 68bf b888 91bf
00000020: 624a 023f
2.568816 0.9531549 0.522219 1.4998381 -1.2300017 0.39459664 -0.90856373 -1.1369848
0.5089475

layer1.11.conv2.weight f4 [1, 1, 3, 3]
00000000: 0e38 37bf e1e0 f4bd 5c1a 073f 5131 2b3d
00000010: a558 28bf 620e 203f af62 6a3e b7e4 503f
00000020: 2ecd 0e40
-0.7156991 -0.11956955 0.52774596 0.04179508 -0.6576026 0.62521946 0.22889207 0.8159899
2.2312732

layer1.12.conv1.weight f4 [1, 1, 3, 3]
00000000: 2275 87be 8081 60bf 6d88 cfbf 826c 26bf
00000010: 0606 48be 46f3 b7be 7b71 563f 7fcf 0fbf
00000020: a1ca e1bd
-0.26456553 -0.876976 -1.6213509 -0.6500932 -0.19533548 -0.3592779 0.8376691 -0.5617599
-0.110249765

layer1.12.conv2.weight f4 [1, 1, 3, 3]
00000000: 822d c6bd 93c8 7e3f e1db 74c0 50f3 8a3e
00000010: 4ccc ae3e bd4d 4f3e 0373 44bf 37c3 5d3f
00000020: b9ab d1bd
-0.09676649 0.995248 -3.8259203 0.27138758 0.3414024 0.20244499 -0.76737994 0.86626
-0.102378316

layer1.13.conv1.weight f4 [1, 1, 3, 3]
00000000: f5d5 1b3f 822c 8d3f 2869 5dbf 9326 6dbf
00000010: 62b4 acbe f9b6 3b3c 33c6 06bf 686a 1fc0
00000020: d318 a3bf
0.6087335 1.1029208 -0.8648858 -0.92636985 -0.3373137 0.011457198 -0.5264618 -2.4908695
-1.2741951

layer1.13.conv2.weight f4 [1, 1, 3, 3]
00000000: 9d9b ab3d 2db4 153f dd1d 58bf cfdc eabf
00000010: 7ba1 8e3f a8ee 61bf d08b 073e 6717 ce3e
00000020: f5e4 4240
0.0837929 0.5847805 -0.8442057 -1.8348635 1.114303 -0.88254786 0.13236928 0.4025223
3.0452244

layer1.14.conv1.weight f4 [1, 1, 3, 3]
00000000: 1d91 803f f602 b4be 5ca1 b23f b929 133f
00000010: e5e6 dcbf 3371 c23f c9ab 943f 07b1 68be
00000020: 9fcd 8e3e
1.0044285 -0.3515851 1.3955493 0.5748554 -1.7257963 1.5190796 1.1614925 -0.2272378
0.2789125

layer1.14.conv2.weight f4 [1, 1, 3, 3]
00000000: f8d6 d5bd b93d ecbe 3646 55bd 55ff 45bf
00000010: 01c9 213e a9ef 6fbe dfa5 20c0 54bb d33e
00000020: 60ee b4bf
-0.10441393 -0.4614084 -0.05206891 -0.7734273 0.15799333 -0.23431267 -2.510124 0.41353858
-1.4135246

layer1.15.conv1.weight f4 [1, 1, 3, 3]
00000000: c21a 9dbf 4567 a03b 5954 233f 8acc c1bf
00000010: cef9 09c0 7145 83be 3ccb 49bf 47eb ba3f
00000020: 9098 17bf
-1.2273791 0.004895123 0.6380058 -1.5140545 -2.1558719 -0.25638917 -0.78825736 1.4603051
-0.59217167

layer1.15.conv2.weight f4 [1, 1, 3, 3]
00000000: b0a8 b5be 8c31 2040 f889 353c 189f 473f
00000010: 5bae d2bf b6a6 dc3e 8199 a63f ea06 59bf
00000020: e161 c3bd
-0.3548026 2.503024 0.011080258 0.7797713 -1.6459459 0.4309594 1.3015596 -0.84776175
-0.09540153

layer1.16.conv1.weight f4 [1, 1, 3, 3]
00000000: c329 603f cb06 68be f506 353f 09af c43f
00000010: f34a 8c3d 6e51 853f f691 6bbe 1816 403f
00000020: c254 37bf
0.87563723 -0.22658841 0.7071374 1.5365916 0.06850233 1.0415475 -0.23004898 0.7503371
-0.71613705

layer1.16.conv2.weight f4 [1, 1, 3, 3]
00000000: 9b45 353f 2d4f e6be dcbf d53d 78aa 62bf
00000010: 5356 f4bf 2f68 1fbf 04c6 c1bf b8b5 dd3f
00000020: 81a7 98bf
0.70809335 -0.4498228 0.10436985 -0.88541365 -1.9088844 -0.62268347 -1.5138555 1.7321081
-1.1926118

layer1.17.conv1.weight f4 [1, 1, 3, 3]
00000000: 43bb 49bf 4646 c23f 2015 2a3f 14a9 94be
00000010: 5dec a6bc d686 8ebf 259c 143f bc2e dabf
00000020: 30c5 4ebf
-0.78801364 1.5177696 0.66438484 -0.29035246 -0.020376379 -1.1134899 0.5805076 -1.7045512
-0.80769634

layer1.17.conv2.weight f4 [1, 1, 3, 3]
00000000: cc04 afbd e525 d4bc dc48 303e 2963 2a3d
00000010: 8e02 053e be21 033e 1d83 8b3d bfee a3bf
00000020: f6b2 e63e
-0.08545837 -0.025896976 0.17215294 0.041598473 0.12989256 0.1280584 0.06812117 -1.2807235
0.4505841

layer2.0.conv1.weight f4 [1, 1, 3, 3]
00000000: 3935 703f acc1 50bf 15ba 22bf 3116 793f
00000010: 9d9b 78bf 4d69 3dbe 4d51 b2be 2fbe a03f
00000020: e277 e8be
0.9383121 -0.8154552 -0.6356519 0.97299486 -0.9711245 -0.184972 -0.34827653 1.255804
-0.45403963

layer2.0.conv2.weight f4 [1, 1, 3, 3]
00000000: c6c7 ba3f 6b64 343f 227c 273f fbbf 173e
00000010: aaf9 c53e 9081 ddbf e860 57bf fe94 f13e
00000020: a5f8 94be
1.4592216 0.70465726 0.65423787 0.14819328 0.3866704 -1.7305164 -0.8413224 0.47183985
-0.2909595

layer2.1.conv1.weight f4 [1, 1, 3, 3]
00000000: d144 1bbe 4376 96bf 4dc3 983e 573b 3cbf
00000010: ed52 d23f 9e4c cfbd cc7e 0d40 042e 833f
00000020: 54f6 fe3b
-0.1516297 -1.1754841 0.29836503 -0.73528045 1.6431557 -0.101220354 2.210864 1.0248418
0.0077808294

layer2.1.conv2.weight f4 [1, 1, 3, 3]
00000000: cefa 213e 8adf 2c3e 1fe2 5d3e 3f14 3dbf
00000010: b601 583f c9bf e2be cbb4 8cbf d9d1 8e3e
00000020: 25bc 8d3f
0.1581833 0.16882148 0.2166829 -0.7385902 0.8437761 -0.44286945 -1.0992674 0.27894476
1.1073042

layer2.2.conv1.weight f4 [1, 1, 3, 3]
00000000: 8694 e7be ce79 a43f 9b15 d6be 634c 2abf
00000010: 39bc 1a3f 89e0 b9be f220 433f 9af4 be3f
00000020: 147a e2be
-0.45230502 1.2849672 -0.4181336 -0.66522807 0.60443455 -0.3630412 0.76222146 1.4918396
-0.44233763

layer2.2.conv2.weight f4 [1, 1, 3, 3]
00000000: 782e 513f e8aa 443f c854 99bf eefc 7e3d
00000010: 3f43 33be e349 2d3f e052 77bf a328 f33f
00000020: 4adb 203f
0.8171153 0.7682328 -1.1978998 0.06225293 -0.17506121 0.6769087 -0.9661083 1.8996776
0.6283461

layer2.3.conv1.weight f4 [1, 1, 3, 3]
00000000: 5f0e 1e3f a09d aabf aced 3a3f c304 c5be
00000010: e42b d53e 6af6 a23e fd86 b3bc da57 d6bf
00000020: 3b8e 283f
0.6174068 -1.3329353 0.7301891 -0.38480195 0.41635048 0.31828624 -0.021914953 -1.674556
0.65842026

layer2.3.conv2.weight f4 [1, 1, 3, 3]
00000000: 3b43 90bd 5336 613e f2d2 be3e 1a5b e5bb
00000010: a918 10be 18ea 33be 09ec 453e 8270 09c0
00000020: 1fd0 86be
-0.07044073 0.2199338 0.37270314 -0.0069993855 -0.14071907 -0.17569768 0.19328322 -2.147492
-0.2633066

layer2.4.conv1.weight f4 [1, 1, 3, 3]
00000000: 260f 7ebd c939 803f e2ed 05bf 6931 0f40
00000010: 52e5 e1be 63e0 29bf 3a03 62bb 6d69 9bbf
00000020: 8f7a a9bf
-0.062026165 1.0017635 -0.52316105 2.2373908 -0.4412027 -0.6635801 -0.0034486786 -1.2141548
-1.3240527

layer2.4.conv2.weight f4 [1, 1, 3, 3]
00000000: 0a87 91bf e319 5cbe fb0c 8c3f b898 213f
00000010: fcdf 4c3f f490 96bf 2db0 00c0 c56c d2bf
00000020: 3d44 943f
-1.1369336 -0.2149425 1.0941461 0.63123655 0.80029273 -1.1762986 -2.010753 -1.6439444
1.1583325

layer2.5.conv1.weight f4 [1, 1, 3, 3]
00000000: 2a6b de3e 0ed4 71bf 7607 b1bf 8f69 42bf
00000010: ed52 1fbf 2069 36bf 7e1c 6d3e 6891 f0be
00000020: c049 f63e
0.43441135 -0.94464195 -1.3830402 -0.7594232 -0.6223591 -0.7125416 0.231554 -0.46985936
0.48103142

layer2.5.conv2.weight f4 [1, 1, 3, 3]
00000000: d6c5 83bf be6f 83be 96e1 453f 7868 cfbe
00000010: 6f81 72be 009b 0fbe 522a c5bf e4c8 413d
00000020: 5477 0fbf
-1.029475 -0.2567119 0.7729734 -0.4050939 -0.23682187 -0.14023972 -1.540354 0.047310725
-0.56041455

layer2.6.conv1.weight f4 [1, 1, 3, 3]
00000000: 3a83 b6bf a937 3a40 4f34 b03c 0b67 d13f
00000010: 67ce 1f3d 0031 44bd 3625 873e 9c36 1440
00000020: 8bcd 72bb
-1.4258797 2.9096472 0.021509318 1.6359571 0.0390152 -0.047898293 0.26395577 2.315833
-0.0037048783

layer2.6.conv2.weight f4 [1, 1, 3, 3]
00000000: 27c5 b1bf a0b5 9bbe 078b c4bf bff2 39bf
00000010: 169c 1ebf b85f a4bd f329 8dbf 02c7 c43e
00000020: c865 c73e
-1.3888291 -0.30412006 -1.5354928 -0.72636026 -0.6195692 -0.080260694 -1.1028427 0.3843308
0.3894484

layer2.7.conv1.weight f4 [1, 1, 3, 3]
00000000: f727 113f 5bfa cc3d d178 91bf ac42 20be
00000010: 3197 193e 40ea adbf b67a a1bf 6b8c 11bf
00000020: e758 85be
0.56701607 0.10008689 -1.1364995 -0.15650433 0.14999081 -1.3587112 -1.2615573 -0.56854886
-0.2604439

layer2.7.conv2.weight f4 [1, 1, 3, 3]
00000000: 4533 75bf f801 0440 ef99 a4bb 60d4 8fbf
00000010: cbc5 bc3d 1544 3ebe 5668 513f 12bd 053e
00000020: 1cdc 12bf
-0.95781356 2.0626202 -0.005023233 -1.1236687 0.092174135 -0.18580659 0.8179983 0.13060406
-0.5736711

layer2.8.conv1.weight f4 [1, 1, 3, 3]
00000000: 65c5 853f 6905 953f f050 1ebf 2128 2f3d
00000010: 1a00 833f 1b34 fd3e 3e65 963e 8e77 123f
00000020: 2a71 86bf
1.0450865 1.1642276 -0.6184225 0.04276288 1.0234406 0.49453816 0.29374117 0.57213676
-1.0503285

layer2.8.conv2.weight f4 [1, 1, 3, 3]
00000000: ed9d 09bf d731 99bf adfa 543f b329 7b3e
00000010: 79d2 1ebd 8a24 a13f d24c 5ec0 301d 9a3f
00000020: 03f9 9a3f
-0.537566 -1.1968335 0.83195 0.24527626 -0.03877494 1.2589276 -3.4734387 1.2040157
1.2107242

layer2.9.conv1.weight f4 [1, 1, 3, 3]
00000000: 9532 0b3f ea60 0140 7393 9dbe e931 393f
00000010: b694 163f 8551 cfbe 4cfe 0abf 4b99 abbe
00000020: f32a febf
0.5437406 2.0215402 -0.30776557 0.7234178 0.58820665 -0.40491882 -0.54294276 -0.3351539
-1.9856857

layer2.9.conv2.weight f4 [1, 1, 3, 3]
00000000: 00ac 2b3f f0f3 30be db95 59be 7a55 7fbf
00000010: 9e91 a7be 0771 093f 55fa 42bf 5e20 683e
00000020: 87f6 3ebf
0.67059326 -0.17280555 -0.21248572 -0.997398 -0.32728285 0.5368809 -0.76163226 0.22668597
-0.7459492

layer2.10.conv1.weight f4 [1, 1, 3, 3]
00000000: e55c b2be 9a34 33be f086 03bf d90e 60bf
00000010: 0457 dcbd c7fb a63f eb9b d8be 83c0 833d
00000020: e258 41be
-0.34836498 -0.17500535 -0.51377773 -0.87522656 -0.107587844 1.3045586 -0.42306456 0.06433203
-0.18881562

layer2.10.conv2.weight f4 [1, 1, 3, 3]
00000000: f0ac dfbe 7f88 12be 5040 4f3e 7319 38c0
00000010: 885b 693d 73ae 0c3e 0d29 cf3e 1718 083e
00000020: a570 75bd
-0.43686628 -0.14309882 0.20239377 -2.8765533 0.056972057 0.13738422 0.40461007 0.1329044
-0.05992188

layer2.11.conv1.weight f4 [1, 1, 3, 3]
00000000: a0ba 8a3f ee44 0f40 579d e83e 606f 883f
00000010: 2eec 4b3f fd5d 1d40 c590 60bf 1a6b 23c0
00000020: 3062 5b3f
1.0838203 2.2385821 0.4543254 1.0658989 0.79657257 2.4588616 -0.877209 -2.553412
0.856967

layer2.11.conv2.weight f4 [1, 1, 3, 3]
00000000: f539 20bf 5de7 a53f 3431 0a3f 7eb2 8e3e
00000010: 44b8 883f ac7c 493f 5ca2 bebe 60a1 0040
00000020: 46fc e33d
-0.62588435 1.2961231 0.5398133 0.27870554 1.0681233 0.7870586 -0.37233245 2.0098495
0.11132102

layer2.12.conv1.weight f4 [1, 1, 3, 3]
00000000: def3 de3e d54a f73e 847a 0e3f be74 7fbd
00000010: e561 44bd c1c0 7b3f 233d 8a3e 92cf 7c3f
00000020: 34fd 83be
0.4354543 0.4829928 0.55655694 -0.062367193 -0.047944922 0.98340994 0.2699977 0.9875423
-0.25779116

layer2.12.conv2.weight f4 [1, 1, 3, 3]
00000000: 723b 583e e090 b7be 67d9 2f3f 23c1 ec3e
00000010: 72ba b63e 776a b93f 56dd 2f40 6ea3 203e
00000020: 6862 a53d
0.21116427 -0.35852718 0.68691105 0.46241102 0.3568912 1.4485615 2.7478843 0.15687343
0.0807541

layer2.13.conv1.weight f4 [1, 1, 3, 3]
00000000: a3cd 823e d1a7 cf3d edc9 4b3f 07e3 89bd
00000010: 4825 203f 896b 213f fe59 513f b9af b9be
00000020: 9e48 133f
0.25547513 0.1013943 0.7960499 -0.06732755 0.62556887 0.6305471 0.8177794 -0.36266878
0.5753268

layer2.13.conv2.weight f4 [1, 1, 3, 3]
00000000: 26e7 5c3c 4723 8cbf c459 1c3e 7ffa bf3e
00000010: 6d09 b13d fdb4 393e 7a01 bf3e caf0 a9bf
00000020: aef8 2b3e
0.013482844 -1.0948266 0.15268618 0.374958 0.08644376 0.18135448 0.37305814 -1.3276608
0.16794083

layer2.14.conv1.weight f4 [1, 1, 3, 3]
00000000: b578 b83f d372 34bf e68a 4d3e b895 923e
00000010: 4cee ed3e 4c15 bfbe 1a63 ed3f 0562 4f3e
00000020: 56a7 c33d
1.4411837 -0.7048771 0.20072517 0.2862985 0.4647087 -0.37320936 1.8545868 0.20252235
0.09553401

layer2.14.conv2.weight f4 [1, 1, 3, 3]
00000000: 274d e53f 31e8 c83e dff3 c73e ce2c 803f
00000010: 44e4 f1bc 6b5b aa3e c0d2 debb 35a1 c0bd
00000020: 80d5 07c0
1.791417 0.39239648 0.39053246 1.0013673 -0.02952779 0.3327287 -0.0068000257 -0.09405748
-2.122406

layer2.15.conv1.weight f4 [1, 1, 3, 3]
00000000: 2f10 3cbf 7650 57bf bab7 a63f 8497 873e
00000010: 5ff9 d53f f782 eebe cc9b 1bbf 5eaa 84bf
00000020: 6f8a 243f
-0.73462194 -0.8410715 1.3024819 0.26482785 1.6716727 -0.46584293 -0.607846 -1.0364492
0.6427373

layer2.15.conv2.weight f4 [1, 1, 3, 3]
00000000: 2881 ccbe c6c1 f9bd 9150 aebe 50e4 abbe
00000010: 385c 8d3e cf9f 98be 3b64 73bf c0de c13f
00000020: 74b1 40be
-0.39942288 -0.121951625 -0.34045842 -0.33572626 0.2760942 -0.29809424 -0.95074815 1.5146103
-0.18817693

layer2.16.conv1.weight f4 [1, 1, 3, 3]
00000000: 472c 56bf 61bd 03be 659c febd 57af 34bf
00000010: cd8a 4abf e5a9 57bf ae22 f43e 0b5f 90bf
00000020: 62e5 3abf
-0.8366131 -0.12865211 -0.12432174 -0.7058005 -0.79118043 -0.84243613 0.47682709 -1.1279005
-0.7300626

layer2.16.conv2.weight f4 [1, 1, 3, 3]
00000000: 32ee a0be 6487 1fbf fbd6 c3bf 1bfe f5bf
00000010: e89d 88be 9505 a6bf 7dea 163f 5e4f 0440
00000020: 272f 9a3e
-0.3143173 -0.62315965 -1.5299982 -1.9218172 -0.26682973 -1.2970454 0.5895155 2.0673442
0.301141

layer2.17.conv1.weight f4 [1, 1, 3, 3]
00000000: 6379 95be cc49 0a3d fe96 893f 1aef 63bf
00000010: d79d 9cbf d31a 05bf 2f33 debe 7885 50bf
00000020: 0e30 873f
-0.29194173 0.033761784 1.0749204 -0.89036715 -1.2235669 -0.51994056 -0.43398425 -0.8145366
1.056154

layer2.17.conv2.weight f4 [1, 1, 3, 3]
00000000: d5f3 1bbf c678 5cbe 1444 76bf ca7b 823f
00000010: 1978 8d3e bbbf fe3e 3fa8 d2bf 654a 6d3f
00000020: 58b2 9a3f
-0.60918933 -0.21530446 -0.9619763 1.0194027 0.2763069 0.49755654 -1.6457595 0.9269164
1.2085676

layer3.0.conv1.weight f4 [1, 1, 3, 3]
00000000: 940d 1ebf 68e8 573f b684 983f 6e45 ee3d
00000010: 4266 6e3d b5f0 17bf f89a da3f 61bd 86ba
00000020: 3947 a23f
-0.6173947 0.84339 1.19155 0.116343364 0.05820299 -0.59351665 1.7078543 -0.0010279828
1.2677985

layer3.0.conv2.weight f4 [1, 1, 3, 3]
00000000: 0485 323f 03f5 0bbe b367 d73f 7a2b 02bf
00000010: b576 843e cf69 213e 80cc 903e ca5e f2bd
00000020: 498b 993f
0.69734216 -0.13667683 1.6828521 -0.5084759 0.25871816 0.15763019 0.2828102 -0.11834486
1.1995631

layer3.1.conv1.weight f4 [1, 1, 3, 3]
00000000: 67e7 8cbd 3fd5 bbbf 48d6 253f 49b2 153f
00000010: d4fd 4cbf cdb4 113f b32e 6dbd 776a 4e3f
00000020: 55bd efbf
-0.06880074 -1.4674453 0.6478009 0.58475167 -0.8007481 0.56916505 -0.057905864 0.806312
-1.8729655

layer3.1.conv2.weight f4 [1, 1, 3, 3]
00000000: 2354 c6be 56c1 9a3f 4e8a 8d3f c82a a0bf
00000010: 957f 9d3f a664 4d3b 2891 0d3f 41f9 1e40
00000020: 446a 053f
-0.38736066 1.2090251 1.1057832 -1.2513056 1.230456 0.0031340509 0.55299616 2.4839633
0.52115273

layer3.2.conv1.weight f4 [1, 1, 3, 3]
00000000: 7455 853e 849c 683f 81dc b5bf 84e3 43bf
00000010: fa1a c1be a9a0 20bf 123c 88be 3719 6bbf
00000020: b209 e4be
0.26041758 0.90863824 -1.4207917 -0.76519036 -0.37715894 -0.6274515 -0.2660833 -0.9183535
-0.44538647

layer3.2.conv2.weight f4 [1, 1, 3, 3]
00000000: 3218 efbe aa58 1f3f 0530 b83e cd2b 82bf
00000010: 6c69 413f c5e6 0240 b107 523f a3e5 593f
00000020: 3d61 0940
-0.46698147 0.62244666 0.35974136 -1.0169617 0.75551486 2.045335 0.82042986 0.8511602
2.14656

layer3.3.conv1.weight f4 [1, 1, 3, 3]
00000000: 8b64 1240 ef72 a9be 1c3d 42bf 2603 57bf
00000010: dc61 8e3e c912 c0bf 54b9 4440 5216 943f
00000020: c02c c63f
2.2873867 -0.330955 -0.75874496 -0.8398918 0.27809036 -1.5005733 3.0738115 1.1569312
1.5482407

layer3.3.conv2.weight f4 [1, 1, 3, 3]
00000000: 2362 6e3e 9b53 f7be 05ca c33f 3dde a7bf
00000010: cdf9 5f3f 3d3f c4bd aaa7 9d3f d856 1fbf
00000020: 675f b03f
0.23279624 -0.48305973 1.5296026 -1.3114697 0.8749054 -0.09582374 1.2316792 -0.6224189
1.3779114

layer3.4.conv1.weight f4 [1, 1, 3, 3]
00000000: 54bc 10be 5c20 0b3e d106 913f 0b90 2cc0
00000010: 53b6 b3be 550d 6f3f 3e9e e03e 58b8 60bc
00000020: 0ce1 623d
-0.14134341 0.13586563 1.1330205 -2.6962917 -0.3510004 0.9337972 0.4387073 -0.013715826
0.055390403

layer3.4.conv2.weight f4 [1, 1, 3, 3]
00000000: 8cec a0bc 713f 773f 70ad 143f ee62 883d
00000010: 8c44 bdbe 50ec 88bf ecc0 4c3e 250c f93d
00000020: 3135 34bf
-0.019644044 0.9658118 0.58077145 0.06659494 -0.3696636 -1.0697117 0.19995469 0.121605195
-0.70393664

layer3.5.conv1.weight f4 [1, 1, 3, 3]
00000000: c9b7 353d a68a e1bf 4d64 3d3f d214 0dbf
00000010: 7dcd d03f 6998 b13f 83c8 0b3f 7c3c 773f
00000020: a427 7c3f
0.044364724 -1.7620437 0.7398117 -0.55109894 1.631271 1.3874637 0.5460283 0.96576667
0.98497987

layer3.5.conv2.weight f4 [1, 1, 3, 3]
00000000: a174 ecbf 9d2b 87bf ea88 c93e 03a4 02bf
00000010: d5b1 41be fa2e e8be 047f c5bf 32b3 80be
00000020: bef4 593f
-1.8473092 -1.0560185 0.3936227 -0.5103151 -0.18915494 -0.4534834 -1.5429387 -0.25136715
0.8513907

layer3.6.conv1.weight f4 [1, 1, 3, 3]
00000000: 7e7e aa3f 370c 5dbe 9346 21be ca63 01bf
00000010: bd0e a2be bda8 f0be 05c9 d7bf b615 42bf
00000020: 3723 b23d
1.3319852 -0.21586691 -0.15749578 -0.5054289 -0.3165187 -0.47003737 -1.6858221 -0.7581438
0.08698123

layer3.6.conv2.weight f4 [1, 1, 3, 3]
00000000: 47f0 c43e 9f90 3a40 b2c2 d53f 23c1 2f3f
00000010: 105b 493f 12f1 64bf 6a35 f9bc a0d8 81bf
00000020: 8979 2fbf
0.38464567 2.915077 1.6700041 0.6865408 0.78654575 -0.89430344 -0.030420978 -1.0144234
-0.6854482

layer3.7.conv1.weight f4 [1, 1, 3, 3]
00000000: 5e55 0cbf 9a7b 323f 58bb e8bf d47f 18bf
00000010: 3c4b b5be 44f9 0640 59d4 0f3f ebcb a23f
00000020: 3bd4 b23f
-0.5481776 0.6971985 -1.8182173 -0.5957005 -0.35408962 2.108964 0.5618339 1.2718481
1.3971018

layer3.7.conv2.weight f4 [1, 1, 3, 3]
00000000: 0463 d8bf 74f5 a13f 7bea b6bf b30f 8fbc
00000010: 1bcb ef3e bafe bc3e 0e4d 9d3f 1ae4 57bf
00000020: a512 0ac0
-1.6905217 1.2653031 -1.4290308 -0.01746354 0.46834645 0.3691309 1.228914 -0.8433243
-2.157388

layer3.8.conv1.weight f4 [1, 1, 3, 3]
00000000: d2f8 15bd 4794 b33f 1495 a8be 68f2 bf3e
00000010: 0d0c aebe 1518 c03e 1877 883e 8e0a 043f
00000020: bb84 78bf
-0.036614247 1.4029626 -0.32926238 0.3748963 -0.3399357 0.37518373 0.2665336 0.51578605
-0.9707753

layer3.8.conv2.weight f4 [1, 1, 3, 3]
00000000: feda f53e 27f3 ccbd dcf8 b63f a111 da3e
00000010: c04c e33e a273 67bf 39f9 b8bf 561c e83f
00000020: 2abd c93f
0.4801864 -0.10007315 1.4294696 0.42591575 0.44394493 -0.90410817 -1.4451057 1.8133647
1.5760853

layer3.9.conv1.weight f4 [1, 1, 3, 3]
00000000: 276b 55bf 87fb be3e fcc7 98bf d4a2 00c0
00000010: 5570 74bf bc93 9d3f af8a 713e 5960 02bf
00000020: 10b6 27bf
-0.83366627 0.37301275 -1.193603 -2.0099382 -0.95483905 1.231071 0.2358806 -0.50928265
-0.6551218

layer3.9.conv2.weight f4 [1, 1, 3, 3]
00000000: 124d 04c0 c4f9 d4bd b33a 9d3f 0f0a 81bf
00000010: 6e2d ec3e d542 59be 100b 953f 1e08 cfbd
00000020: c3e9 d23f
-2.067204 -0.103992015 1.2283539 -1.0081195 0.4612841 -0.212169 1.1644001 -0.1010897
1.6477588

layer3.10.conv1.weight f4 [1, 1, 3, 3]
00000000: 9833 eabe 44cc a43c 03b0 91bf 82cd 493f
00000010: 359c 853e 3163 073f 2f6a 1cbf 66a9 82bd
00000020: 54ee 9b3f
-0.45742488 0.020116933 -1.138184 0.78829205 0.2609574 0.5288573 -0.61099523 -0.063799664
1.2182107

layer3.10.conv2.weight f4 [1, 1, 3, 3]
00000000: bcd6 bb3e 6afa 07bd 2838 50bf 1405 d6be
00000010: 552f 1840 6e8d 303f 218f 7bbf 9e7f 9f3f
00000020: f680 e63e
0.36687267 -0.033197798 -0.8133569 -0.4180075 2.377889 0.68965805 -0.9826527 1.2460821
0.45020264

layer3.11.conv1.weight f4 [1, 1, 3, 3]
00000000: d394 e0bf bf08 6abf ef5e 2d3e 53e2 0abf
00000010: 66ec 95bf 13b0 e7bf edf5 d2bf 8d61 9bbf
00000020: 6a57 43bc
-1.7545418 -0.91419595 0.16930746 -0.54251593 -1.1712768 -1.8100609 -1.64813 -1.2139145
-0.011922697

layer3.11.conv2.weight f4 [1, 1, 3, 3]
00000000: f541 e2be 5c22 493f 3d9e c7bf c31d c8bf
00000010: bd8f 023f b112 263e 8148 2bbf 4ba9 d83b
00000020: b2f6 65bf
-0.44190946 0.78568053 -1.5595165 -1.5634083 0.5100058 0.16218068 -0.6690751 0.006611978
-0.8982955

layer3.12.conv1.weight f4 [1, 1, 3, 3]
00000000: 3792 913e fd15 3ebe 1c33 7c3e 46c8 2840
00000010: a17d 013f d49e f9bf 2863 273f 2256 af3e
00000020: f226 34bf
0.28431866 -0.18563075 0.24628872 2.6372237 0.5058232 -1.9501595 0.65385675 0.34245402
-0.70371926

layer3.12.conv2.weight f4 [1, 1, 3, 3]
00000000: 967b 343f 8009 07bf 5148 1cbd 45e9 1c3f
00000010: c582 cb3e 240a 13c0 6057 06bf 96fd 8cbe
00000020: 79d5 41bf
0.7050108 -0.5274887 -0.038154904 0.6129344 0.39748207 -2.297494 -0.52477074 -0.2753722
-0.7571636

layer3.13.conv1.weight f4 [1, 1, 3, 3]
00000000: 6ebd 53c0 e60a 00c0 c362 813e 9867 9f3f
00000010: 361a e3bc d091 703f af81 1340 7166 f23e
00000020: 0f87 d8bf
-3.3084369 -2.0006652 0.25270662 1.2453489 -0.02772246 0.9397249 2.3047903 0.47343782
-1.6916217

layer3.13.conv2.weight f4 [1, 1, 3, 3]
00000000: 4d02 a5bd 8955 de3f 81bd aa3e 5cfa 9b3f
00000010: dfa5 59be f658 9dbc 4b87 3fbf 1856 4240
00000020: fb39 163f
-0.080570795 1.7369853 0.33347705 1.2185779 -0.21254681 -0.019207459 -0.74815816 3.0365047
0.5868222

layer3.14.conv1.weight f4 [1, 1, 3, 3]
00000000: 26f0 b1be f199 8bbf 0c91 70bf 6c62 9c3f
00000010: 942a f73f 4288 75be d4be 293c c64f f93e
00000020: c5d7 f4bf
-0.3475353 -1.0906354 -0.93971324 1.2217536 1.9309869 -0.2397776 0.010360438 0.48693675
-1.9128348

layer3.14.conv2.weight f4 [1, 1, 3, 3]
00000000: 84a8 a33e e392 493f 4a49 0140 e22d 76bf
00000010: 901c f6be 7985 5dbf a02f bbbf 1f25 c23e
00000020: 3d41 8d3f
0.31964505 0.78739756 2.0200982 -0.9616376 -0.48068666 -0.8653179 -1.4623909 0.37918946
1.1035534

layer3.15.conv1.weight f4 [1, 1, 3, 3]
00000000: 2fa5 01c0 8906 37bf b608 2a3f 9b4d 7dbf
00000010: 989b 033d 9fc8 59bf a71c c8bf 4fcb af3f
00000020: 2fbc 40bf
-2.025707 -0.71494347 0.6641954 -0.9894654 0.032130808 -0.8507175 -1.5633744 1.373392
-0.75287145

layer3.15.conv2.weight f4 [1, 1, 3, 3]
00000000: 8d1d e0bc 6b30 073f d5ea 973e 1f9c 3c3f
00000010: b660 4d3d bfeb 253f 2f81 55be fe02 653f
00000020: 0bd9 0c3f
-0.02735784 0.52808255 0.2967135 0.7367572 0.05014106 0.64812845 -0.20850061 0.8945769
0.5501868

layer3.16.conv1.weight f4 [1, 1, 3, 3]
00000000: 8251 0840 a27b a83f dd6e 923f d416 723f
00000010: fec8 493e 6943 1e3f c77a 1c3f 374c 5abf
00000020: b407 5f3f
2.1299748 1.316273 1.1440083 0.9456608 0.19705579 0.6182161 0.61124843 -0.85272545
0.8712113

layer3.16.conv2.weight f4 [1, 1, 3, 3]
00000000: 853a 203f 3c42 103f 1b37 0d3e 1acd d9be
00000010: a993 d23f 6860 873e 5b2c ba3f 5192 fa3f
00000020: 7e23 d83e
0.62589294 0.56351066 0.13790552 -0.42539293 1.6451312 0.2644074 1.4544786 1.9575902
0.42214578

layer3.17.conv1.weight f4 [1, 1, 3, 3]
00000000: afaa d9bf 54d0 863f 6906 663f 1cbd 953f
00000010: b910 85bf f162 9ebe 021e d9bf 7d91 7ebf
00000020: 0309 093e
-1.7005213 1.0532327 0.8985353 1.1698337 -1.0395728 -0.3093486 -1.6962283 -0.9944075
0.13382344

layer3.17.conv2.weight f4 [1, 1, 3, 3]
00000000: 2339 0cbf 6f7a c13e 4a07 43be 7da8 f8bd
00000010: 30c3 b8be 37a8 5bbf 0be6 62bf 5921 23c0
00000020: efd6 45be
-0.54774684 0.37788722 -0.1904575 -0.121415116 -0.36086416 -0.8580355 -0.8863227 -2.5489104
-0.19320272
