models/cifar10_narrow_vgg.ckpt (torch, 33608 bytes, 44 tensors)

features.0.weight f4 [1, 3, 3, 3]
0	0x3cf98c16	0.030462306
1	0xbf87f934	-1.0622926
2	0x3e3d699d	0.1849732
3	0xbe61e27d	-0.22059055
4	0x3ca6f3b0	0.020379871
5	0x3d924523	0.07142093
6	0x3e474d6a	0.19463125
7	0x3f0c33d9	0.54766613
8	0xbe2765dd	-0.16347452
9	0xbd3ccb5e	-0.046092384
10	0x3df22dea	0.11825164
11	0x3e151a9b	0.1456093
12	0x3ce8eccb	0.028433224
13	0xbe9167b5	-0.28399435
14	0xbdef751b	-0.11692258
15	0x3ec4b452	0.38418823
16	0xbe55b349	-0.20869173
17	0x3e954c1c	0.2915963
18	0x3e45519f	0.19269417
19	0x3f038f26	0.513903
20	0xbf1d7c14	-0.61517453
21	0xbe5b89cb	-0.21439283
22	0x3f18fd4d	0.59761506
23	0x3e935704	0.28777325
24	0x3eea1d64	0.45725548
25	0xbe258cb0	-0.1616695
26	0xbe305d82	-0.1722317

features.3.weight f4 [1, 1, 3, 3]
0	0x3d52064f	0.051275548
1	0xbe193f16	-0.14965472
2	0x3eb873cc	0.36025846
3	0x3d758e51	0.059950177
4	0xbf4e526d	-0.8059452
5	0x3f0486d3	0.51768225
6	0xbdd391a9	-0.10330517
7	0xbe5b6c4f	-0.21428035
8	0x3e8c6ffd	0.2742919

features.7.weight f4 [1, 1, 3, 3]
0	0xbe125121	-0.1428876
1	0xbf02e6e1	-0.51133543
2	0x3ecbc511	0.39798787
3	0x3eee6bac	0.46566522
4	0x3e8f1c95	0.27951494
5	0xbe017efe	-0.126461
6	0x3f29b745	0.6629527
7	0x3f68bcaf	0.9091291
8	0x3f0c941a	0.54913485

features.10.weight f4 [1, 1, 3, 3]
0	0xbf79717e	-0.974388
1	0xbce275cb	-0.027644059
2	0x3ef8efa3	0.48620328
3	0x3d8cf7b4	0.06883183
4	0x3e8c6dce	0.27427524
5	0x3e8c421d	0.2739419
6	0xbf2cbc25	-0.67474586
7	0xbfc83b46	-1.5643089
8	0x3e70062a	0.23439851

features.14.weight f4 [1, 1, 3, 3]
0	0x3d7d43fe	0.06183242
1	0x3d41d92d	0.047326256
2	0x3e9dd2f4	0.30825007
3	0xbe5f1e39	-0.21788873
4	0xbe916b94	-0.28402388
5	0xbf1360a9	-0.57569367
6	0xbeaeb3d3	-0.3412157
7	0xbf736c93	-0.95087546
8	0xbece7de2	-0.40330416

features.17.weight f4 [1, 1, 3, 3]
0	0xbd774e73	-0.06037755
1	0xbc94068f	-0.018069534
2	0x3cae3f3a	0.021270383
3	0x3d3fdc38	0.046840876
4	0x3d4654e6	0.04842081
5	0x3f33a906	0.70179784
6	0x3f08964b	0.5335433
7	0xbe1bc5ca	-0.1521217
8	0x3f0f1066	0.558844

features.20.weight f4 [1, 1, 3, 3]
0	0x3d8050f2	0.06265439
1	0xbe1d6f2e	-0.15374443
2	0x3ebc1b09	0.36739376
3	0x3e28495d	0.16434236
4	0x3e839ee4	0.2570716
5	0xbec0d3bf	-0.3766155
6	0x3f01db84	0.5072558
7	0x3f1baf66	0.6081451
8	0x3f22d5c0	0.63607407

features.24.weight f4 [2, 1, 3, 3]
0	0x3eefe20e	0.46852154
1	0xbee7d54c	-0.4527992
2	0xbef53d43	-0.478983
3	0x3ce5c7ad	0.028049314
4	0x3e343f2c	0.17602223
5	0xbe9023b6	-0.28152245
6	0x3d4b689d	0.049660314
7	0xbeebce72	-0.46055943
8	0x3d1e0398	0.038577646
9	0x3dfe4992	0.12416376
10	0x3f24026c	0.64066195
11	0xbe6a02b2	-0.2285259
12	0x3e89dd24	0.2692653
13	0x3ed72802	0.4202271
14	0xbeea8953	-0.45807895
15	0xbdff0cdc	-0.124536246
16	0xbd869ed4	-0.06573263
17	0xbf50a6d5	-0.81504565

features.24.bias f4 [2]
0	0x3e32063c	0.1738519
1	0x3db6e26e	0.08929907

features.25.weight f4 [2]
0	0x3f74959f	0.95540804
1	0x3f7e3e53	0.9931385

features.25.bias f4 [2]
0	0xbe8c6609	-0.27421597
1	0x3ed117c4	0.40838444

features.25.running_mean f4 [2]
0	0xbebf1d97	-0.37327263
1	0x3e00261d	0.12514539

features.25.running_var f4 [2]
0	0x3eb69530	0.35660696
1	0x3f7c9b44	0.98674417

features.27.weight f4 [2, 2, 3, 3]
0	0x3e1ef943	0.15524773
1	0x3b704e8c	0.0036667911
2	0xbe207377	-0.15669046
3	0x3e7d64b5	0.24745448
4	0xbe2ff422	-0.17182973
5	0xbef3755f	-0.47550485
6	0xbef79eaf	-0.48363253
7	0xbf2966ef	-0.6617269
8	0x3eb17d9a	0.3466614
9	0xbecd41b0	-0.40089178
10	0xbee0a36e	-0.43874687
11	0x3bd07824	0.006361978
12	0xbefef184	-0.49793637
13	0x3f1d0ed8	0.61350775
14	0x3d3d25aa	0.046178497
15	0x3def547d	0.11686037
16	0xbe682972	-0.2267206
17	0x3f1cfaa2	0.61319935
18	0xbce2d509	-0.027689474
19	0x3d5a47e0	0.0532912
20	0xbd7ea3a5	-0.062167782
21	0x3e68690a	0.22696319
22	0x3ca452d0	0.02005902
23	0x3e9b47f5	0.30328336
24	0xbf080cbc	-0.5314443
25	0x3ed0bab8	0.40767455
26	0xbd03c4ae	-0.03216999
27	0xbc872f3b	-0.016502013
28	0x3e03284c	0.12808341
29	0x3e8b19b7	0.27168056
30	0x3ce652a5	0.02811558
31	0xbcfbd1cb	-0.030739686
32	0x3e98b184	0.29822934
33	0x3eb46067	0.352298
34	0x3e84b177	0.25916645
35	0xbedece37	-0.43516704

features.27.bias f4 [2]
0	0x3d96062d	0.07325397
1	0xbca3a63a	-0.019976724

features.28.weight f4 [2]
0	0x3f4c2037	0.79736656
1	0x3f8d37da	1.103267

features.28.bias f4 [2]
0	0xbdda9ba2	-0.10674216
1	0x3edbb881	0.42914203

features.28.running_mean f4 [2]
0	0x3e2a4f47	0.16631804
1	0x3ee788df	0.45221612

features.28.running_var f4 [2]
0	0x3f3ba3e2	0.7329694
1	0x3ee73c75	0.45163313

features.30.weight f4 [2, 2, 3, 3]
0	0x3d6b008b	0.057373565
1	0xbe00d360	-0.12580633
2	0xbea134c2	-0.31485564
3	0xbee986e9	-0.4561074
4	0xbecbdcca	-0.39816886
5	0xbe8909ab	-0.2676519
6	0x3e1a8d31	0.15092923
7	0x3e32d840	0.17465305
8	0xbf26ce1d	-0.65158254
9	0x3ebb6014	0.3659674
10	0x3d61c3e1	0.055118445
11	0x3f2ae624	0.66757417
12	0xbeda82ea	-0.42678005
13	0x3e46c3bb	0.19410603
14	0xbf215ef9	-0.6303554
15	0xbe82e7ca	-0.25567466
16	0xbe38ce15	-0.18047364
17	0xbe9bf3be	-0.30459398
18	0xbeeb667e	-0.45976633
19	0x3f2bcc40	0.67108536
20	0x3e3f13d0	0.18659902
21	0xbe935a4d	-0.28779832
22	0xbf11b75b	-0.56920403
23	0x3e4f76aa	0.2026011
24	0x3c7f828e	0.0155950915
25	0x3cfea14b	0.03108277
26	0x3ee60dca	0.44932395
27	0xbe899fb2	-0.2687965
28	0x3e3023c3	0.17201142
29	0x3e573864	0.21017605
30	0xbf4a3913	-0.7899334
31	0x3e1f8a7e	0.15580174
32	0x3d82fb39	0.06395573
33	0xbf236941	-0.6383248
34	0xbefde114	-0.49585783
35	0x3e01a1c5	0.12659366

features.30.bias f4 [2]
0	0x3df8a0d2	0.12140049
1	0x3e10a298	0.14124525

features.31.weight f4 [2]
0	0x3f8bc179	1.0918418
1	0x3f751f81	0.95751196

features.31.bias f4 [2]
0	0x3d98abf9	0.07454676
1	0x3e42c8e4	0.19021946

features.31.running_mean f4 [2]
0	0xbf3c58c3	-0.7357294
1	0xbee402cb	-0.4453338

features.31.running_var f4 [2]
0	0x3f8dc391	1.1075307
1	0x3fc68532	1.5509398

features.34.weight f4 [2, 2, 3, 3]
0	0x3ec489a1	0.38386253
1	0x3d5f9d28	0.054593235
2	0x3e928b7a	0.28622037
3	0xbf6ee1fd	-0.9331358
4	0xbe540b93	-0.2070754
5	0x3e11aa9c	0.14225239
6	0x3e0ef7aa	0.13961664
7	0x3e0f39b3	0.13986854
8	0xbe0b9195	-0.13629754
9	0xbf30ea73	-0.6910774
10	0x3f0c257d	0.547447
11	0xbdab74cf	-0.08371889
12	0xbe85bc6b	-0.26120314
13	0x3e8a7307	0.27040884
14	0x3e590cf8	0.21196353
15	0x3e9aca6b	0.30232558
16	0x3ed60c91	0.41806462
17	0xbdee6717	-0.116407566
18	0xbc2e406c	-0.010635477
19	0x3d647dc7	0.055784013
20	0x3df3bae7	0.11900883
21	0xbd0ed0e9	-0.0348672
22	0x3f482262	0.78177464
23	0xbf26c1e4	-0.65139604
24	0xbf3df943	-0.7420847
25	0xbe355edb	-0.17711966
26	0xbe1f8ec9	-0.15581812
27	0x3f2e699e	0.6812991
28	0x3f08a875	0.53382045
29	0x3f0e830c	0.5566871
30	0xbd889731	-0.066694625
31	0x3ed8fb3f	0.42379186
32	0x3e845e2d	0.258531
33	0xbf09e9d1	-0.538724
34	0x3ea9150c	0.3302387
35	0x3e9baad7	0.30403778

features.34.bias f4 [2]
0	0xbdb49fe3	-0.088195585
1	0x3d82ab4b	0.06380328

features.35.weight f4 [2]
0	0x3f54204d	0.8286179
1	0x3f7daf6e	0.9909581

features.35.bias f4 [2]
0	0xbeb061ff	-0.34449765
1	0x3eca232b	0.39479956

features.35.running_mean f4 [2]
0	0xbd575271	-0.052568857
1	0x3f8aacff	1.0834044

features.35.running_var f4 [2]
0	0x400491f6	2.0714087
1	0x4046c410	3.1057167

features.37.weight f4 [2, 2, 3, 3]
0	0xbe7e81ab	-0.24854152
1	0x3d08c22f	0.033388313
2	0xbf10a0de	-0.56495464
3	0x3f077ac1	0.5292168
4	0xbe9dd03b	-0.3082293
5	0xbdd0b44e	-0.101906404
6	0xbd98084e	-0.07423459
7	0xbee5a710	-0.4485402
8	0xbe187d46	-0.14891538
9	0xbdcfceab	-0.10146841
10	0x3e2114cc	0.1573059
11	0xbf19cb2c	-0.6007564
12	0xbd579d0b	-0.052640002
13	0x3e86fca1	0.26364616
14	0x3f1de297	0.61673874
15	0x3e9ef13c	0.31043422
16	0xbf0e5342	-0.5559579
17	0xbf200bae	-0.6251782
18	0x3e73130c	0.23737735
19	0x3ce42837	0.027851207
20	0x3f051ef8	0.5200038
21	0x3e74ae1d	0.23894544
22	0x3ede1a91	0.43379644
23	0xbd4f2d91	-0.050580565
24	0x3c94c281	0.018159153
25	0xbdfee38a	-0.124457434
26	0x3ecfc5df	0.4058065
27	0x3df910f6	0.12161438
28	0xbd19c9fb	-0.03754614
29	0x3dadf8a4	0.0849469
30	0x3e1fd0fa	0.15607062
31	0xbf2acf7b	-0.6672284
32	0x3d6105c8	0.054937154
33	0x3ec06f18	0.37584758
34	0xbd2f27d9	-0.04276261
35	0xbf0809fc	-0.53140235

features.37.bias f4 [2]
0	0x3c5f23e6	0.013619399
1	0xbd121a40	-0.035669565

features.38.weight f4 [2]
0	0x3f62c4ae	0.8858136
1	0x3f88b42d	1.0679985

features.38.bias f4 [2]
0	0x3e672c41	0.22575475
1	0x3e9666c1	0.2937527

features.38.running_mean f4 [2]
0	0xbe104525	-0.14088877
1	0xbeee150b	-0.4650043

features.38.running_var f4 [2]
0	0x3f9bbad7	1.2166394
1	0x3ed9b84a	0.42523414

features.40.weight f4 [2, 2, 3, 3]
0	0x3db119e2	0.08647515
1	0x3eda162e	0.42595047
2	0xbe1625e2	-0.14662889
3	0x3d12fd7b	0.03588627
4	0x3a9740d7	0.001153971
5	0xbf73d214	-0.9524243
6	0x3f2bcff7	0.67114204
7	0xbd6b8565	-0.05750026
8	0x3e83714c	0.25672376
9	0x3e7af50e	0.24507543
10	0xbe4e344c	-0.20137137
11	0x3c1ab3bd	0.009442267
12	0x3ee412bb	0.4454554
13	0xbf2824e7	-0.6568131
14	0x3ef93262	0.48671252
15	0x3e8ed2cc	0.278952
16	0xbd939dac	-0.07207808
17	0x3ec192bb	0.3780726
18	0xbe778160	-0.24170446
19	0x3e5c5870	0.21518111
20	0x3e927f07	0.2861254
21	0x3e1b7dba	0.1518468
22	0xbedab20a	-0.42713958
23	0xbec81aab	-0.39082846
24	0xbe76360d	-0.24044056
25	0xbe899c40	-0.26877022
26	0x3e0ec2f1	0.13941552
27	0x3edd0c2d	0.43173352
28	0xbe6d0eee	-0.23150226
29	0x3e21e3ff	0.1580963
30	0x3f013380	0.5046921
31	0x3d03f643	0.032217275
32	0xbf8b6888	-1.0891275
33	0xbdf02dfd	-0.117275216
34	0x3e5563a3	0.2083879
35	0x3ec42f51	0.3831735

features.40.bias f4 [2]
0	0xbe495511	-0.19661357
1	0xbe306a10	-0.1722796

features.41.weight f4 [2]
0	0x40271086	2.6103835
1	0x3fef5a7e	1.8699491

features.41.bias f4 [2]
0	0x3f76f0b8	0.9646106
1	0x3d3aec21	0.045635346

features.41.running_mean f4 [2]
0	0xbe9be834	-0.30450594
1	0xbf6bb3c3	-0.9207117

features.41.running_var f4 [2]
0	0x3f653cb5	0.89545757
1	0x3f0539cb	0.5204131

classifier.0.weight f4 [1, 2]
0	0x3fcee94a	1.6164944
1	0xbfbc6efd	-1.4721371
