models/imagenet_narrow_mobilenetv2.ckpt (torch, 113767 bytes, 18 tensors)

features.0.0.weight f4 [1, 3, 3, 3]
00000000: fc79 19bf f388 cc3f a516 2c3f a2c7 7bbe
00000010: 50ff ad3e 1bd8 cb3d 856b 86be 0e1d 1d3f
00000020: 2416 1a3f 66da 11be 86ab 7bbd c947 833f
00000030: fe81 0d3e e957 6f3f d8a2 6fbe 0218 18be
00000040: 936f 41be 1373 0d3f 631e 71be a609 763e
00000050: bde4 733e b876 9e3e 652f 5a3d c80d 753f
00000060: 1cc7 8cbd a37e e13e 2ec2 26bf
-0.5995176 1.5979294 0.6722205 -0.24587873 0.3398385 0.09953328 -0.26253906 0.6137246
0.60190034 -0.14243469 -0.061442874 1.0256282 0.1381912 0.93493515 -0.23401964 -0.14852908
-0.18890218 0.55253714 -0.23546748 0.24027118 0.23817725 0.3094995 0.053267855 0.95724154
-0.068739146 0.4404193 -0.65140045

features.1.conv.0.0.weight f4 [1, 1, 3, 3]
00000000: 65af 3dbc 2cd9 febd d73b 233f 6818 d13e
00000010: e99e bd3e 260a 4abf 4e23 3d3f 6a2f be3e
00000020: bef6 0c3f
-0.011577462 -0.12443766 0.63763183 0.40838933 0.370353 -0.78921735 0.73881996 0.3714555
0.55064

features.2.conv.1.0.weight f4 [1, 1, 3, 3]
00000000: cbc3 eabd 87d3 17bf 33e2 423e 9bbb 5b3e
00000010: c37d efbe 455f 25bf 8acd 5cbe d011 1c3f
00000020: 6791 44be
-0.11463126 -0.5930714 0.190316 0.21458285 -0.46775636 -0.64598495 -0.21562782 0.6096468
-0.19196092

features.3.conv.1.0.weight f4 [1, 1, 3, 3]
00000000: 94f1 32bd 37a8 5bbd 16b5 7fbd 8716 68bd
00000010: 5d4a 6a3e 3ad6 1bbf 5679 9bbe 20ed 5bbf
00000020: e0b7 babd
-0.043687418 -0.05362722 -0.062428556 -0.05666211 0.2287993 -0.6087376 -0.3036601 -0.859087
-0.091171026

features.4.conv.1.0.weight f4 [1, 1, 3, 3]
00000000: 2a0e 20be a1f5 76bd c2d2 4c3e 876a 703f
00000010: 7690 58bf da37 803e 4be9 8a3e 48e5 f43e
00000020: 24bf f9be
-0.15630403 -0.060292844 0.20002273 0.9391255 -0.8459543 0.2504261 0.27131113 0.47831178
-0.4877864

features.5.conv.1.0.weight f4 [1, 1, 3, 3]
00000000: 0b7d 0ebf 93ac 103f 3a32 2fbf a7db 23be
00000010: d433 fc3d 9fb1 d43e 62b7 c2be 8035 c13e
00000020: 4698 783e
-0.5565955 0.5651333 -0.68436015 -0.1600176 0.12314573 0.41541764 -0.38030535 0.3773613
0.24276838

features.6.conv.1.0.weight f4 [1, 1, 3, 3]
00000000: fd68 f63e a60a aabe f025 05bf 4ca5 bf3d
00000010: 7d69 60bd 8503 273d 41d3 cabe 0056 d33e
00000020: 8e5f 4cbc
0.48126975 -0.3321125 -0.52011013 0.093577 -0.0547881 0.04077484 -0.396143 0.4127655
-0.012473954

features.7.conv.1.0.weight f4 [1, 1, 3, 3]
00000000: f3cf 5f3e a4de cebe 7482 17be d35f 88be
00000010: be81 b3bf a1d0 9abd 3b80 58be 36ce d83e
00000020: a69f b83d
0.2185667 -0.40404236 -0.14795858 -0.26635608 -1.4023969 -0.07559324 -0.21142666 0.42344826
0.090148255

features.8.conv.1.0.weight f4 [1, 1, 3, 3]
00000000: bd6e 793e 2efe 2fbe d19a 313e b995 a9be
00000010: 73b5 c4be f2d1 28be db48 61bf 2875 b9be
00000020: 4836 89be
0.2435865 -0.17186806 0.17344214 -0.33122042 -0.38419685 -0.16486338 -0.88001794 -0.36222196
-0.26799226

features.9.conv.1.0.weight f4 [1, 1, 3, 3]
00000000: 0fc9 9bbe 5a22 19be e794 31bd 9002 9d3d
00000010: 0e05 37bf 1c77 0d3f c57f 40bf 0fc8 c23d
00000020: b9c2 b83e
-0.30426833 -0.1495451 -0.043354895 0.076665044 -0.7149209 0.5525987 -0.7519496 0.095108144
0.36086062

features.10.conv.1.0.weight f4 [1, 1, 3, 3]
00000000: d7ec bfbd 9645 b03e 370c 07bf 2dde 00bf
00000010: 7d18 453e 62f2 203e 03fa c8be 5f1d 7d3f
00000020: f700 093f
-0.093713455 0.3442809 -0.52753013 -0.50339013 0.19247623 0.15717462 -0.39253244 0.9887294
0.535171

features.11.conv.1.0.weight f4 [1, 1, 3, 3]
00000000: 84f8 fdbe 62f3 bfbe 4be6 b5be ecbf d5be
00000010: 4eb3 533c 410b 81be 33f2 7dbf 10d8 bfbe
00000020: 2ac2 733f
-0.49603665 -0.37490374 -0.35527262 -0.41747987 0.012921168 -0.252039 -0.9919769 -0.3746953
0.95218146

features.12.conv.1.0.weight f4 [1, 1, 3, 3]
00000000: 593c 04bf 7a84 6bbe 3bb2 1e3e 7196 1abf
00000010: f76a d4bd c6b5 24bf 0ba9 f2bd 33ac d9bd
00000020: e19c 753f
-0.51654583 -0.22999755 0.15497677 -0.60385805 -0.103719644 -0.64339864 -0.11848649 -0.106285475
0.95942503

features.13.conv.1.0.weight f4 [1, 1, 3, 3]
00000000: e387 25bd 9af8 963d 029b 9e3e df82 1dbf
00000010: efd9 0d3d 577d a7be 4d41 91be a8d6 56bf
00000020: 686e e63e
-0.040412795 0.07371636 0.30977637 -0.6152782 0.034631666 -0.32712814 -0.28370133 -0.8392129
0.45006108

features.14.conv.1.0.weight f4 [1, 1, 3, 3]
00000000: 1d39 96bd e0a8 83be e043 12bd 6f4f d23b
00000010: cf4c 8a3e 7fdd c5bd 5f61 8a3e ef55 3fbf
00000020: 5ad8 c5be
-0.07335112 -0.2571478 -0.035709262 0.0064181606 0.27011725 -0.09661388 0.27027413 -0.747405
-0.38641626

features.15.conv.1.0.weight f4 [1, 1, 3, 3]
00000000: f389 90bd 9920 863d 43ec 243d cb39 6cbd
00000010: efed 8c3c 2ab4 ad3e 018e e73b af6f 0d3d
00000020: fb53 b9bc
-0.07057562 0.06549186 0.04026438 -0.057672303 0.0172033 0.33926517 0.0070664887 0.034530338
-0.022623053

features.16.conv.1.0.weight f4 [1, 1, 3, 3]
00000000: 6e3d a1be 50ac d4be 8ac1 78be e247 b83b
00000010: a42b c5bd e337 e33c c6ee 4abe 2bba a9be
00000020: 593e 443d
-0.3149218 -0.41537714 -0.2429258 0.0056238035 -0.096274644 0.02773661 -0.19817647 -0.33149847
0.04791102

features.17.conv.1.0.weight f4 [1, 1, 3, 3]
00000000: 12b0 1abf 72a3 72bf 7977 deba e51e 1a3f
00000010: 1ae6 6f3f 9de9 af3b 535f 19bc 2894 013c
00000020: 8385 86ba
-0.6042491 -0.9478065 -0.0016972861 0.6020339 0.9371048 0.005368425 -0.009361106 0.007908858
-0.0010263178
