models/imagenet_narrow_resnet.ckpt (torch, 218015 bytes, 230 tensors)

conv1.weight f4 [1, 3, 7, 7]
0	0xbe109e92	-0.1412299
1	0xbe1dd401	-0.15412904
2	0xbe965673	-0.2936283
3	0xbee4b6ce	-0.4467072
4	0xbe398418	-0.18116796
5	0xbda715ba	-0.08158441
6	0xbe9acc71	-0.302341
7	0xbd9e1565	-0.077189244
8	0x3e521acb	0.20518033
9	0xbe30da8a	-0.17270866
10	0xbde08311	-0.10962499
11	0x3cb49cf9	0.022047507
12	0x3d9a174f	0.07523977
13	0xbd8d8843	-0.069107555
14	0xbe421511	-0.18953349
15	0xbd5e1e5d	-0.054228175
16	0x3d98a7db	0.07453891
17	0xbce361ac	-0.027756535
18	0xbda61ab1	-0.0811056
19	0xbd0290f4	-0.03187652
20	0xbc86ee3d	-0.016471023
21	0xbd9b3b94	-0.07579723
22	0x3d287d8b	0.041135352
23	0xbdcd5c7b	-0.10027405
24	0xbe94faa7	-0.29097483
25	0xbee64c72	-0.44980198
26	0xbe6e1a39	-0.2325219
27	0x3e3b5899	0.18295516
28	0xbd378c64	-0.04481162
29	0xbd805059	-0.06265325
30	0xbda4f56c	-0.08054623
31	0xbe8b6346	-0.27224177
32	0xbe733744	-0.23751551
33	0x3df2c95e	0.11854814
34	0x3e5573a7	0.20844899
35	0x3defab3f	0.117025845
36	0x3df9b1e1	0.12192131
37	0xbe59deb6	-0.21276364
38	0xbebc7b10	-0.3681264
39	0x3e1a7dbd	0.15087028
40	0x3e567ab6	0.20945248
41	0x3e75310a	0.23944488
42	0x3da15cec	0.078790516
43	0xbc8a6098	-0.016891763
44	0x3c049f19	0.008094572
45	0xbeb36998	-0.350415
46	0x3e1ccccc	0.15312499
47	0x3e172012	0.14758328
48	0x3e3e1584	0.18562895
49	0xbd62471d	-0.0552436
50	0xbe138402	-0.14405826
51	0xbd81d651	-0.06339706
52	0xbe14ac76	-0.14518914
53	0x3b50a06c	0.00318339
54	0x3e4636b7	0.1935681
55	0xbd147ead	-0.03625362
56	0x3d8cf6ff	0.06883048
57	0x3e442053	0.19152956
58	0x3d477aae	0.04870098
59	0x3e575fe0	0.21032667
60	0x3ec333c4	0.38125432
61	0x3ebfa477	0.37430164
62	0x3d8057df	0.0626676
63	0xbe1ff6c4	-0.15621477
64	0x3c03daec	0.0080478005
65	0x3cc9f450	0.02465263
66	0x3e54155e	0.20711276
67	0x3e7e0ae0	0.24808836
68	0xbd3aad6b	-0.04557554
69	0x3dd531ff	0.104099266
70	0xbd11e2c8	-0.035616666
71	0x3e8ac26b	0.27101454
72	0x3dbf50b7	0.09341567
73	0xbececf07	-0.40392324
74	0xbe328841	-0.17434789
75	0x3e374f47	0.17901336
76	0x3e8cab6a	0.2747453
77	0x3e76bc96	0.24095377
78	0x3ec1f048	0.37878633
79	0x3d31ca71	0.043405954
80	0xbe168c8b	-0.1470205
81	0xbe72a8d4	-0.23697215
82	0x3e87d1ec	0.26527345
83	0x3eb5372f	0.35393664
84	0x3d3da55b	0.046300273
85	0x3eb341f3	0.35011253
86	0xbc32a661	-0.010903926
87	0xbe99ba23	-0.30024824
88	0xbdca72a8	-0.0988515
89	0x3e529621	0.20565082
90	0x3eadd691	0.33952764
91	0x3e150611	0.14553095
92	0x3e8487be	0.25884813
93	0xbe1a09ff	-0.15042876
94	0xbcee68b8	-0.029102668
95	0x3b3b60ae	0.002859156
96	0x3eab0cd8	0.33408237
97	0x3e85c746	0.26128596
98	0xbc65eb73	-0.014033186
99	0xbdd18776	-0.10230915
100	0xbdb86437	-0.090034895
101	0x3dcd622e	0.10028492
102	0x3d5233c4	0.0513189
103	0xbdc49035	-0.09597818
104	0xbd1d4a81	-0.03840113
105	0xbd6170cb	-0.05503921
106	0x3e903c62	0.28171068
107	0x3dd5e4af	0.104440086
108	0x3e21a0b2	0.15783957
109	0x3eb206d2	0.34770828
110	0x3eb7ed18	0.35923076
111	0x3e154e12	0.14580563
112	0xbe1975c1	-0.14986326
113	0x3ea326ec	0.31865633
114	0x3e13a2a1	0.14417507
115	0x3ecdcb5a	0.40194207
116	0x3e95ed79	0.2928274
117	0x3ea41c03	0.3205262
118	0x3e842b77	0.2581441
119	0xbe940aa2	-0.28914362
120	0x3e832ac5	0.25618568
121	0x3e5f32be	0.217967
122	0x3d355eb7	0.04427978
123	0xbcd5f338	-0.026116952
124	0x3ead9aac	0.33907068
125	0x3e97d5ed	0.296554
126	0x3d912c4e	0.070885286
127	0x3ebaf077	0.36511585
128	0x3eb85d65	0.36008754
129	0x3da8cb2e	0.082418784
130	0x3d68940c	0.056781814
131	0x3e45898b	0.1929075
132	0x3e39489b	0.18094103
133	0x3e268949	0.16263308
134	0x3eac7704	0.33684552
135	0x3d856ab9	0.06514496
136	0x3dac0fb2	0.08401431
137	0x3e499cad	0.19688673
138	0x3e6cc353	0.23121385
139	0x3ea5113e	0.32239717
140	0xbcf844c9	-0.030306237
141	0x3e87e595	0.26542345
142	0x3e71c647	0.23610793
143	0x3e1df69f	0.1542611
144	0x3ecd21e1	0.4006491
145	0x3eb3247f	0.34988782
146	0x3ebf21bd	0.37330428

layer1.0.conv2.weight f4 [1, 1, 3, 3]
0	0x3d2b44e2	0.04181374
1	0xbe8e4250	-0.27784967
2	0x3d97acb4	0.074059874
3	0xbdecc8ea	-0.11561759
4	0x3f78cd70	0.9718847
5	0x3f102125	0.56300575
6	0xbcbe60cb	-0.023239514
7	0x3ebcb6bf	0.36858174
8	0xbd70409c	-0.058655366

layer1.0.conv3.weight f4 [4, 1, 1, 1]
0	0x3c94751d	0.01812225
1	0x3d6920c6	0.05691602
2	0xbd17e0c0	-0.037079573
3	0x3d1604df	0.03662574

layer1.0.bn3.weight f4 [4]
0	0xbea8befd	-0.32958212
1	0xbe46dc2c	-0.19419926
2	0xbe7e11e8	-0.24811518
3	0x3f1222ad	0.5708416

layer1.0.bn3.bias f4 [4]
0	0xbdd7a451	-0.10529388
1	0x3d309a44	0.04311587
2	0xbd69c0fd	-0.057068814
3	0xbdc5ab8d	-0.09651861

layer1.0.bn3.running_mean f4 [4]
0	0x3bcf0d66	0.006318736
1	0x3cb9f1f6	0.022698384
2	0xbc8563d7	-0.016282959
3	0x3c66ced5	0.014087399

layer1.0.bn3.running_var f4 [4]
0	0x391dd96c	0.00015053683
1	0x3af93581	0.0019013138
2	0x3a7fdc98	0.0009760349
3	0x3a408cc8	0.0007345197

layer1.0.downsample.0.weight f4 [4, 1, 1, 1]
0	0xbb3e3404	-0.0029022703
1	0xbdda2bfe	-0.10652922
2	0x3d5781db	0.052614074
3	0xbcba2720	-0.022723734

layer1.0.downsample.1.weight f4 [4]
0	0x3ea9a2ca	0.3313201
1	0x3f959083	1.1684726
2	0x3fd90d95	1.695727
3	0xbe920171	-0.28516725

layer1.0.downsample.1.bias f4 [4]
0	0xbdd7a451	-0.10529388
1	0x3d309a44	0.04311587
2	0xbd69c0fd	-0.057068814
3	0xbdc5ab8d	-0.09651861

layer1.0.downsample.1.running_mean f4 [4]
0	0x38c6905d	9.4682655e-05
1	0xbd8ca84c	-0.068680376
2	0x3d1853e1	0.03718937
3	0xbc565471	-0.013081656

layer1.0.downsample.1.running_var f4 [4]
0	0x3647a7fd	2.9751093e-06
1	0x3bd65a37	0.006541516
2	0x3afc2709	0.0019237708
3	0x397b4ccf	0.00023965839

layer1.1.conv1.weight f4 [1, 4, 1, 1]
0	0x3e017644	0.12642771
1	0xbf60ae2d	-0.8776577
2	0xbf048ba4	-0.51775575
3	0xbd8e599a	-0.06950684

layer1.1.conv2.weight f4 [1, 1, 3, 3]
0	0xbe1a29db	-0.15055029
1	0x3d1c45ec	0.03815262
2	0xbebb97f6	-0.36639374
3	0xbebc4421	-0.36770728
4	0xbda96d4c	-0.082728
5	0xbdb8636f	-0.090033405
6	0xbe92acb3	-0.28647384
7	0xbf42def5	-0.76121455
8	0x3e5d9e09	0.21642317

layer1.1.conv3.weight f4 [4, 1, 1, 1]
0	0x3d126af5	0.035746533
1	0xbd8b6fbf	-0.06808423
2	0xba8a6f46	-0.0010561727
3	0xbcef8daa	-0.029242355

layer1.1.bn3.weight f4 [4]
0	0x3ed47c06	0.41500872
1	0xbf517add	-0.818281
2	0x39a15482	0.00030771276
3	0xbdff2bd0	-0.124595284

layer1.1.bn3.bias f4 [4]
0	0xbcaca0a1	-0.021072688
1	0x3e59b8db	0.21261923
2	0xbdc16c05	-0.09444431
3	0xbe1a5628	-0.15071929

layer1.1.bn3.running_mean f4 [4]
0	0x3c5f41d1	0.013626532
1	0xbcdfb634	-0.02730856
2	0x3a75f083	0.00093818473
3	0xbc5ed5a4	-0.013600741

layer1.1.bn3.running_var f4 [4]
0	0x390e2711	0.00013556729
1	0x3a0de14f	0.0005412297
2	0x35bdceb7	1.4141759e-06
3	0x390c98a7	0.00013408308

layer1.2.conv1.weight f4 [1, 4, 1, 1]
0	0xbf8a785f	-1.0817984
1	0xbf3e8149	-0.74416023
2	0xbea811df	-0.32826135
3	0x3e50bc6b	0.20384376

layer1.2.conv2.weight f4 [1, 1, 3, 3]
0	0xbd871623	-0.06596019
1	0x3db3a51b	0.08771726
2	0xbedf8bb7	-0.4366128
3	0xbd90ef1c	-0.070768565
4	0x3f3f7b0e	0.7479714
5	0x3e067783	0.13131528
6	0xbd6292a1	-0.055315617
7	0xbc8cb9e9	-0.017178493
8	0xbdfb5b29	-0.12273247

layer1.2.conv3.weight f4 [4, 1, 1, 1]
0	0x3dcd7788	0.100325644
1	0xbd9264d5	-0.071481384
2	0x3f88e954	1.0696206
3	0x3e7337ca	0.2375175

layer1.2.bn3.weight f4 [4]
0	0xbe082143	-0.13293938
1	0xbccc22e2	-0.024918977
2	0x3e2f69b5	0.17130168
3	0x3ec160fe	0.37769312

layer1.2.bn3.bias f4 [4]
0	0x3d0a174d	0.033713628
1	0xbd03e62c	-0.03220193
2	0x3d7e195c	0.062035903
3	0xbc596e3b	-0.01327091

layer1.2.bn3.running_mean f4 [4]
0	0x3bbc634e	0.0057491427
1	0xbb7eee17	-0.0038899237
2	0x3d770836	0.060310565
3	0x3c5be8bc	0.013422187

layer1.2.bn3.running_var f4 [4]
0	0x38206e8d	3.824993e-05
1	0x3792eff5	1.7516295e-05
2	0x3b89e5c2	0.0042082975
3	0x395a9264	0.00020844635

layer2.0.conv1.weight f4 [1, 4, 1, 1]
0	0x3dd0206c	0.10162434
1	0xbf1f7f95	-0.6230405
2	0x3d129ff3	0.03579707
3	0xbda8531c	-0.08218977

layer2.0.conv2.weight f4 [1, 1, 3, 3]
0	0xbf3404ab	-0.7031962
1	0x3efb202d	0.49047986
2	0xbe8c9012	-0.27453667
3	0xbeccf32e	-0.4002928
4	0x3e079e2d	0.13243933
5	0xbeee5e75	-0.4655644
6	0xbe2dcac2	-0.16971877
7	0x3eb3edd0	0.35142374
8	0xbefde285	-0.49586883

layer2.0.conv3.weight f4 [4, 1, 1, 1]
0	0xbd73d761	-0.059531573
1	0xbc2fa821	-0.010721237
2	0xbd353a04	-0.04424478
3	0x3cf74b47	0.030187262

layer2.0.bn3.weight f4 [4]
0	0xbf1e7279	-0.6189342
1	0xbd8391cb	-0.06424292
2	0xbf045143	-0.51686496
3	0x3f892717	1.0715054

layer2.0.bn3.bias f4 [4]
0	0x3e5f87a8	0.21829093
1	0x3e4dd601	0.20101167
2	0xbe056326	-0.13026103
3	0xbe35bd38	-0.17747962

layer2.0.bn3.running_mean f4 [4]
0	0xbc83c19c	-0.016083531
1	0xbb55700a	-0.0032568001
2	0xbc39cbef	-0.011340125
3	0x3bfe08d8	0.007752519

layer2.0.bn3.running_var f4 [4]
0	0x3a020f55	0.0004961391
1	0x37ac4d91	2.0540117e-05
2	0x398137c8	0.00024646358
3	0x38f19427	0.00011519371

layer2.0.downsample.0.weight f4 [4, 4, 1, 1]
0	0xbd20e2c4	-0.03927876
1	0xbf94075a	-1.1564744
2	0xbf0b318a	-0.54372466
3	0xbecb9bc7	-0.39767286
4	0x3f1fe446	0.6245769
5	0xbf000ccd	-0.5001953
6	0xbf7d466d	-0.98935586
7	0x3d7f04ad	0.06226032
8	0xbd4f039b	-0.050540548
9	0xbe7a9bd1	-0.24473502
10	0x3f29475f	0.6612453
11	0xbea1e6a4	-0.31621277
12	0x3edca984	0.4309808
13	0x3eb98c61	0.36239913
14	0x3f8cb53a	1.0992806
15	0xbdc2aec2	-0.09505989

layer2.0.downsample.1.weight f4 [4]
0	0x3fbf3a85	1.4939734
1	0x3f0a9685	0.54135925
2	0xbea64f92	-0.32482582
3	0x3fe1ef86	1.7651222

layer2.0.downsample.1.bias f4 [4]
0	0x3e5f87a8	0.21829093
1	0x3e4dd601	0.20101167
2	0xbe056326	-0.13026103
3	0xbe35bd38	-0.17747962

layer2.0.downsample.1.running_mean f4 [4]
0	0xbfdbcbdc	-1.7171588
1	0xbf8e7342	-1.1128924
2	0x3e396ca6	0.18107852
3	0x3fa96cd4	1.3236337

layer2.0.downsample.1.running_var f4 [4]
0	0x3fbd5a2c	1.4793143
1	0x3fb1eea1	1.3900949
2	0x3f219615	0.6311963
3	0x3ff2d06f	1.8969859

layer2.1.conv1.weight f4 [1, 4, 1, 1]
0	0x3e3056fe	0.17220685
1	0x3edb58ab	0.42841086
2	0xbf91f863	-1.1403927
3	0x3e4169b9	0.18887986

layer2.1.conv2.weight f4 [1, 1, 3, 3]
0	0xbce0aca7	-0.027426077
1	0xbe00ec14	-0.12590057
2	0x3ec59d71	0.3859668
3	0xbed77b87	-0.4208643
4	0xbf94c208	-1.1621714
5	0x3ebd5771	0.36980775
6	0x3dec34e4	0.115335256
7	0xbde7f226	-0.11325483
8	0xbec5f777	-0.38665363

layer2.1.conv3.weight f4 [4, 1, 1, 1]
0	0x3bea8cc5	0.0071578943
1	0xbcf49feb	-0.029861411
2	0xbccfaf92	-0.025352273
3	0xbd821628	-0.06351882

layer2.1.bn3.weight f4 [4]
0	0xbeecc8c0	-0.4624691
1	0x3f3233de	0.69610393
2	0x3f0db572	0.5535499
3	0x3f9a0dac	1.2035422

layer2.1.bn3.bias f4 [4]
0	0x3ebad693	0.36491832
1	0x3e51a28e	0.20472166
2	0xbc70bb3f	-0.01469308
3	0xbef35cb7	-0.47531673

layer2.1.bn3.running_mean f4 [4]
0	0x3a73a898	0.0009294837
1	0xbbe23954	-0.0069038067
2	0xbbbba14e	-0.005726016
3	0xbc89c5ee	-0.016818013

layer2.1.bn3.running_var f4 [4]
0	0x36873f69	4.0306954e-06
1	0x390e4481	0.00013567695
2	0x38c45c38	9.3631854e-05
3	0x3a5148ec	0.00079835835

layer2.2.conv1.weight f4 [1, 4, 1, 1]
0	0xbf9150a7	-1.1352738
1	0xbf8474ce	-1.0348146
2	0xbe9f6474	-0.31131327
3	0x3fce3e62	1.6112788

layer2.2.conv2.weight f4 [1, 1, 3, 3]
0	0x3f31a874	0.69397664
1	0x3f17d054	0.5930226
2	0x3ccf32b5	0.025292734
3	0xbe8b9d8b	-0.27268633
4	0xbee35642	-0.44401747
5	0x3f80bf9d	1.0058476
6	0xbee0e777	-0.43926594
7	0x3f18bfbd	0.5966757
8	0x3e6d4d1b	0.23173945

layer2.2.conv3.weight f4 [4, 1, 1, 1]
0	0xbdd448e6	-0.10365467
1	0x3e029541	0.12752248
2	0xbe3120d0	-0.17297673
3	0x3e5343e0	0.20631361

layer2.2.bn3.weight f4 [4]
0	0x3f89289f	1.0715522
1	0x3e970ddf	0.2950277
2	0x4016cc7d	2.356231
3	0xbf7f0446	-0.99615896

layer2.2.bn3.bias f4 [4]
0	0x3e21f163	0.15814738
1	0xbe8816ae	-0.26579803
2	0x3e9f783f	0.31146428
3	0xbe3000b4	-0.17187768

layer2.2.bn3.running_mean f4 [4]
0	0xbc78ae17	-0.015178225
1	0x3c9b01e2	0.018921796
2	0xbcca6268	-0.024705127
3	0x3cf570aa	0.029960949

layer2.2.bn3.running_var f4 [4]
0	0x39525885	0.00020060137
1	0x39a2cacf	0.00031050152
2	0x3a0c2d27	0.00053473044
3	0x3a4d387b	0.00078285456

layer2.3.conv1.weight f4 [1, 4, 1, 1]
0	0xbe8c2dbb	-0.2737864
1	0xbf179a84	-0.5922015
2	0x3faadefd	1.3349301
3	0xbdd18173	-0.102297686

layer2.3.conv2.weight f4 [1, 1, 3, 3]
0	0x3f224eb7	0.6340136
1	0xbf46abec	-0.7760608
2	0x3cc6d9c1	0.024273755
3	0x3dc95bba	0.098319486
4	0x3c47cac5	0.01219434
5	0xbf106fdd	-0.5642069
6	0xbd1dc15e	-0.038514487
7	0x3e8cb991	0.27485326
8	0xbef906de	-0.48638052

layer2.3.conv3.weight f4 [4, 1, 1, 1]
0	0x3cce3751	0.025172861
1	0x3d2360c2	0.039887197
2	0xbd3d4aa8	-0.046213776
3	0x3cecbdea	0.028899152

layer2.3.bn3.weight f4 [4]
0	0x3e4a8442	0.19777015
1	0xbea4dab9	-0.32198122
2	0xbd510480	-0.051029682
3	0xbf168ebf	-0.58811563

layer2.3.bn3.bias f4 [4]
0	0x3c2f9874	0.0107175
1	0xbef83540	-0.48478127
2	0xbe55adae	-0.20867035
3	0xbef49745	-0.4777166

layer2.3.bn3.running_mean f4 [4]
0	0x3c140014	0.009033222
1	0x3c6da5a4	0.014504824
2	0xbc80d761	-0.0157277
3	0x3c408fde	0.011753051

layer2.3.bn3.running_var f4 [4]
0	0x39290563	0.00016119103
1	0x39d9dfe3	0.00041556274
2	0x3a0013be	0.00048857543
3	0x3990b6c3	0.00027601988

layer3.0.conv1.weight f4 [1, 4, 1, 1]
0	0x3f69966b	0.91245145
1	0xbc8d77b8	-0.017269
2	0xbfab297c	-1.3372035
3	0xbe6f1a19	-0.23349799

layer3.0.conv2.weight f4 [1, 1, 3, 3]
0	0x3c49c8db	0.012315954
1	0x3cc3caa8	0.023900345
2	0x3d73f5b3	0.05956049
3	0x3e299bd8	0.16563356
4	0x3d99f881	0.075181015
5	0x3eaeea0d	0.34162942
6	0x3e4fa752	0.20278671
7	0x3f63fc60	0.8905697
8	0x3e41c0d8	0.1892122

layer3.0.conv3.weight f4 [4, 1, 1, 1]
0	0x3d70dfa7	0.05880704
1	0x3d4011be	0.04689192
2	0xbd297af0	-0.041377008
3	0x3c4e2577	0.0125821745

layer3.0.bn3.weight f4 [4]
0	0x3f189fa3	0.59618586
1	0xbf41527a	-0.75516474
2	0xbf69bd2c	-0.9130428
3	0x3d71ba6d	0.05901568

layer3.0.bn3.bias f4 [4]
0	0x3e83e231	0.25758508
1	0xbe43504f	-0.19073604
2	0x3d193317	0.03740224
3	0x3e36257f	0.17787741

layer3.0.bn3.running_mean f4 [4]
0	0x3ce890fc	0.028389446
1	0x3cb8e667	0.022570802
2	0xbca00541	-0.019533755
3	0x3bc1a329	0.005909343

layer3.0.bn3.running_var f4 [4]
0	0x3ad8df53	0.0016546048
1	0x3a88fa61	0.0010450595
2	0x3a4dae42	0.0007846096
3	0x3896f495	7.198114e-05

layer3.0.downsample.0.weight f4 [4, 4, 1, 1]
0	0x3dbc20b1	0.09185923
1	0xbdecadbc	-0.11556575
2	0x3e04e185	0.12976654
3	0xbfa362e9	-1.276456
4	0xbc8cd23e	-0.017190095
5	0x3f7d2d3a	0.98897135
6	0xbf279d8d	-0.6547478
7	0xbed271eb	-0.41102538
8	0x3df22042	0.11822559
9	0xbe3a13ad	-0.18171568
10	0x3eff8204	0.49903882
11	0x3e65cefc	0.2244224
12	0x3f00dc7c	0.5033643
13	0xbe827860	-0.25482464
14	0x3ee3bb16	0.44478673
15	0x3c89468f	0.016757278

layer3.0.downsample.1.weight f4 [4]
0	0xbfa1afcf	-1.2631778
1	0xbf239a54	-0.6390736
2	0x3f8baca4	1.0912061
3	0xbefd355f	-0.4945478

layer3.0.downsample.1.bias f4 [4]
0	0x3e83e231	0.25758508
1	0xbe43504f	-0.19073604
2	0x3d193317	0.03740224
3	0x3e36257f	0.17787741

layer3.0.downsample.1.running_mean f4 [4]
0	0xbf32aef6	-0.6979822
1	0xbf456f97	-0.771234
2	0x3f529ec1	0.8227349
3	0x3f91a6f2	1.1379073

layer3.0.downsample.1.running_var f4 [4]
0	0x402baa7a	2.68228
1	0x40140446	2.3127608
2	0x3f6fa483	0.936104
3	0x3f425c8d	0.7592247

layer3.1.conv1.weight f4 [1, 4, 1, 1]
0	0x3e23d84b	0.16000478
1	0xbd525169	-0.05134717
2	0x3ec85d58	0.39133716
3	0xbf098067	-0.5371155

layer3.1.conv2.weight f4 [1, 1, 3, 3]
0	0xbf321314	-0.6956036
1	0x3d17d34d	0.037066747
2	0x3d973078	0.073822916
3	0x3d5e242d	0.05423372
4	0xbf046adb	-0.5172555
5	0x3ec55817	0.3854377
6	0xbf81cfe2	-1.0141566
7	0xbf04c4c1	-0.5186272
8	0xbf055411	-0.520814

layer3.1.conv3.weight f4 [4, 1, 1, 1]
0	0xbca42f88	-0.020042196
1	0x3c4c6539	0.012475305
2	0x3cf1d2d1	0.02951947
3	0xbd98c89d	-0.07460139

layer3.1.bn3.weight f4 [4]
0	0xbd67d933	-0.05660362
1	0x3e1bb7d1	0.15206839
2	0xbe7038aa	-0.23459116
3	0x3f58c7e3	0.8468

layer3.1.bn3.bias f4 [4]
0	0xbd6b04c1	-0.05737758
1	0xbddbbdb5	-0.10729543
2	0xbe87471f	-0.2642145
3	0xbebed0aa	-0.37268573

layer3.1.bn3.running_mean f4 [4]
0	0xbbd8dc7c	-0.0066180807
1	0x3b653cb5	0.003497881
2	0x3c09c04c	0.008407664
3	0xbcb4c135	-0.022064785

layer3.1.bn3.running_var f4 [4]
0	0x388d1933	6.728098e-05
1	0x37a1d87e	1.9293508e-05
2	0x38e6c6b3	0.00011004265
3	0x3a456b19	0.00075309124

layer3.2.conv1.weight f4 [1, 4, 1, 1]
0	0x3eec33e4	0.4613334
1	0xbe2707b1	-0.16311528
2	0x3f23c222	0.639681
3	0xbf298dce	-0.66232

layer3.2.conv2.weight f4 [1, 1, 3, 3]
0	0x3df12507	0.117746405
1	0xbd599656	-0.053121887
2	0x3f07b353	0.53008
3	0x3f9fcf88	1.2485209
4	0x3ebc24c5	0.36746803
5	0x3f6608e1	0.898573
6	0x3e9503e9	0.29104546
7	0xbf06ffb3	-0.52733916
8	0x3ce12d3e	0.027487393

layer3.2.conv3.weight f4 [4, 1, 1, 1]
0	0x3d138363	0.036013972
1	0x3d718730	0.058966815
2	0xbd3b0508	-0.045659095
3	0x3dd6ff81	0.10497952

layer3.2.bn3.weight f4 [4]
0	0x3dedbd0f	0.11608326
1	0x3e829d2f	0.25510547
2	0x3e1d53fc	0.15364069
3	0x3f6ffbb1	0.93743426

layer3.2.bn3.bias f4 [4]
0	0xbed6a570	-0.41923094
1	0xbe2a5e61	-0.16637565
2	0xbef024d8	-0.4690311
3	0xbe6efe73	-0.23339252

layer3.2.bn3.running_mean f4 [4]
0	0x3be0c7be	0.0068597486
1	0x3c35b779	0.011091107
2	0xbc148748	-0.009065457
3	0x3ca5691c	0.020191722

layer3.2.bn3.running_var f4 [4]
0	0x38eb0199	0.00011205971
1	0x3999b339	0.00029315965
2	0x394cd317	0.00019533593
3	0x3a7e4e25	0.00097009755

layer3.3.conv1.weight f4 [1, 4, 1, 1]
0	0xbf34ae23	-0.7057821
1	0xbfa9012d	-1.3203484
2	0xbf9ec95c	-1.24052
3	0xbd40034f	-0.046878155

layer3.3.conv2.weight f4 [1, 1, 3, 3]
0	0x3e183f31	0.14867856
1	0x3e9eb2e5	0.3099586
2	0x3f27f5d3	0.65609473
3	0x3ea3e420	0.32009983
4	0xbefbe663	-0.4919921
5	0x3f9397b3	1.153067
6	0x3f1c0d2e	0.6095761
7	0x3f987989	1.191209
8	0x3f80beea	1.0058262

layer3.3.conv3.weight f4 [4, 1, 1, 1]
0	0xbdf3c019	-0.11901874
1	0x3ca12931	0.019672962
2	0xbd3e29b5	-0.046426494
3	0xbd12fee7	-0.035887625

layer3.3.bn3.weight f4 [4]
0	0xbfb00f79	-1.3754722
1	0x3e008ce0	0.1255374
2	0xbe904790	-0.28179598
3	0xbf3206f0	-0.69541836

layer3.3.bn3.bias f4 [4]
0	0xbf55f31b	-0.83574075
1	0xbed1fdcf	-0.41013953
2	0xbef43537	-0.4769685
3	0xbf0e2493	-0.5552456

layer3.3.bn3.running_mean f4 [4]
0	0xbd7c373d	-0.061576117
1	0x3c227ce9	0.009917476
2	0xbcc91f90	-0.024551183
3	0xbca93c36	-0.020658594

layer3.3.bn3.running_var f4 [4]
0	0x3a8ada44	0.0010593613
1	0x37e59130	2.7366536e-05
2	0x3931502c	0.00016909902
3	0x390021e4	0.00012219656

layer3.4.conv1.weight f4 [1, 4, 1, 1]
0	0x3deb41c4	0.11487153
1	0x3edb1421	0.42788795
2	0x3f2457f7	0.64196724
3	0x3f599356	0.8499044

layer3.4.conv2.weight f4 [1, 1, 3, 3]
0	0xbefb1bd5	-0.49044672
1	0xbda49c91	-0.08037675
2	0xbeb6a2e6	-0.35671157
3	0xbd9ac0ac	-0.075562805
4	0x3ed7db56	0.42159528
5	0x3eecb1c2	0.46229368
6	0xbf844a8f	-1.0335253
7	0xbe3efa1a	-0.18650094
8	0x3d213484	0.039356723

layer3.4.conv3.weight f4 [4, 1, 1, 1]
0	0xbc801685	-0.015635738
1	0xbce61c90	-0.028089792
2	0x3c404a3f	0.011736452
3	0x3d0da8c6	0.034584783

layer3.4.bn3.weight f4 [4]
0	0x3f462ef9	0.77415425
1	0x3ef419c2	0.47675902
2	0xbe0e6dbd	-0.1390905
3	0xbed5fc46	-0.41794032

layer3.4.bn3.bias f4 [4]
0	0xbf438686	-0.7637714
1	0xbf3933c8	-0.72344637
2	0xbf30b446	-0.69025075
3	0xbf416232	-0.7554046

layer3.4.bn3.running_mean f4 [4]
0	0xbc498d2c	-0.012301724
1	0xbcb5eb6e	-0.022206988
2	0x3beb6c92	0.0071845734
3	0x3cde64d2	0.027147684

layer3.4.bn3.running_var f4 [4]
0	0x39086707	0.00013008351
1	0x39de5cad	0.00042412188
2	0x383cdd9f	4.5029094e-05
3	0x3a260d4e	0.000633438

layer3.5.conv1.weight f4 [1, 4, 1, 1]
0	0xbeed597b	-0.4635733
1	0xbd8f09af	-0.06984269
2	0x3c8079b8	0.01568304
3	0xbf861c35	-1.0477358

layer3.5.conv2.weight f4 [1, 1, 3, 3]
0	0xbe4a4846	-0.19754133
1	0x3fb8ab4c	1.4427276
2	0x3eb19de2	0.34690768
3	0xbe7888f2	-0.2427099
4	0x3f373cff	0.7157745
5	0x3d55622f	0.05209559
6	0xbe099579	-0.13435926
7	0x3effb97a	0.49946195
8	0x3f19ed9d	0.60128194

layer3.5.conv3.weight f4 [4, 1, 1, 1]
0	0x3d8c9b66	0.068655774
1	0xbcf4a02e	-0.029861536
2	0x3dc821f8	0.09772104
3	0x3dd601c4	0.104495555

layer3.5.bn3.weight f4 [4]
0	0x3ddf2934	0.10896531
1	0xbe17385d	-0.14767595
2	0x3fa1aace	1.263025
3	0x3f621a37	0.8832125

layer3.5.bn3.bias f4 [4]
0	0xbf68a854	-0.9088185
1	0xbec2f447	-0.38076994
2	0xbe16f1f7	-0.1474074
3	0xbeec5904	-0.46161664

layer3.5.bn3.running_mean f4 [4]
0	0x3d235acd	0.039881516
1	0xbc93e848	-0.018055096
2	0x3d61e213	0.05514724
3	0x3d770dc9	0.06031588

layer3.5.bn3.running_var f4 [4]
0	0x39864083	0.00025606537
1	0x385cd52d	5.2650623e-05
2	0x3a002f20	0.00048898347
3	0x3a19788d	0.000585445

layer3.6.conv1.weight f4 [1, 4, 1, 1]
0	0x3e9ba668	0.30400395
1	0x3e307b7f	0.1723461
2	0x3f1dd863	0.61658305
3	0xbd0c8de1	-0.034314994

layer3.6.conv2.weight f4 [1, 1, 3, 3]
0	0xbf11d581	-0.56966406
1	0x3d9c9fa3	0.07647636
2	0xbc09cc94	-0.008410592
3	0x3e452d60	0.1925559
4	0x3f83c46d	1.0294319
5	0x3dd18970	0.10231292
6	0xbdd8bb0a	-0.1058255
7	0x3ec4cd5a	0.3843792
8	0xbd7bf02c	-0.061508343

layer3.6.conv3.weight f4 [4, 1, 1, 1]
0	0xbd817a8d	-0.06322203
1	0x3ca2ccf9	0.01987313
2	0x3d44dcfd	0.048062313
3	0xbaaedc4c	-0.00133408

layer3.6.bn3.weight f4 [4]
0	0xbe74e754	-0.2391637
1	0x3d904843	0.07045033
2	0x3e82c97a	0.2554434
3	0xbac820ba	-0.0015268542

layer3.6.bn3.bias f4 [4]
0	0xbf4ca32b	-0.79936475
1	0xbe8a049b	-0.2695664
2	0xbf027629	-0.5096155
3	0xbebf8cad	-0.37412015

layer3.6.bn3.running_mean f4 [4]
0	0xbbde0cd3	-0.006776431
1	0x3b1035ac	0.0022004647
2	0x3ba37d6b	0.004989316
3	0xb91bba21	-0.0001485129

layer3.6.bn3.running_var f4 [4]
0	0x398bd52f	0.0002667098
1	0x37ec5563	2.8173154e-05
2	0x3917ad95	0.00014465147
3	0x340e9f5d	1.3282757e-07

layer3.7.conv1.weight f4 [1, 4, 1, 1]
0	0xbf9aa1aa	-1.2080586
1	0xbe346ff5	-0.17620833
2	0x3e98552e	0.29752487
3	0x3f0c5c51	0.54828364

layer3.7.conv2.weight f4 [1, 1, 3, 3]
0	0xbec26ff1	-0.3797603
1	0xbf91725a	-1.1363022
2	0x3edb2995	0.42805162
3	0x3e4bbd46	0.19896421
4	0xbf6cb838	-0.92468596
5	0xbf548388	-0.830132
6	0xbe0b8729	-0.13625778
7	0xbebf9673	-0.3741947
8	0xbea2fa56	-0.31831616

layer3.7.conv3.weight f4 [4, 1, 1, 1]
0	0x3e8a7a10	0.2704625
1	0xbca56e96	-0.020194333
2	0x3f426321	0.7593251
3	0x3e94bad3	0.29048786

layer3.7.bn3.weight f4 [4]
0	0xbea7be9a	-0.32762605
1	0x3dd387f9	0.10328669
2	0x3f5fb955	0.8739217
3	0x3eda841c	0.42678916

layer3.7.bn3.bias f4 [4]
0	0x3f421b4d	0.7582291
1	0xbe59c8cb	-0.21268003
2	0xbe9fa335	-0.31179205
3	0xbe9ed546	-0.3102209

layer3.7.bn3.running_mean f4 [4]
0	0x3d59bc1e	0.05315792
1	0xbb854136	-0.0040666116
2	0x3e180ad6	0.14847884
3	0x3d671467	0.05641594

layer3.7.bn3.running_var f4 [4]
0	0x3975bda6	0.0002343567
1	0x35b8bee3	1.3764624e-06
2	0x3aef985a	0.0018279657
3	0x398a472a	0.00026374432

layer3.8.conv1.weight f4 [1, 4, 1, 1]
0	0xbfb86552	-1.440592
1	0xbea0efdd	-0.31433
2	0x3eb8d130	0.36097097
3	0xbe3d7212	-0.18500546

layer3.8.conv2.weight f4 [1, 1, 3, 3]
0	0xbd761548	-0.06007889
1	0xbec280a6	-0.37988776
2	0x3ecc5b7a	0.3991354
3	0xbe7a7402	-0.24458316
4	0xbf50d301	-0.81571966
5	0x3fa59cea	1.2938511
6	0x3e5522ba	0.20814028
7	0xbe44e7c1	-0.19229032
8	0x3eedf229	0.46473816

layer3.8.conv3.weight f4 [4, 1, 1, 1]
0	0x3e5d0403	0.21583562
1	0xbdfc79e1	-0.12327934
2	0x3e31a6a0	0.17348719
3	0x3f609354	0.87724805

layer3.8.bn3.weight f4 [4]
0	0xbff24553	-1.8927406
1	0x3e874ef1	0.26427415
2	0x3e8b2504	0.27176678
3	0xc016d0b5	-2.3564885

layer3.8.bn3.bias f4 [4]
0	0xbeaa85dd	-0.33305255
1	0x3e7bd6de	0.24593684
2	0xbf0180b2	-0.50587
3	0xbf0347c6	-0.5128139

layer3.8.bn3.running_mean f4 [4]
0	0x3d87cf8a	0.06631382
1	0xbd1a895b	-0.03772865
2	0x3d595f1f	0.05306923
3	0x3e899292	0.26869637

layer3.8.bn3.running_var f4 [4]
0	0x39482a2a	0.00019089194
1	0x38818096	6.17515e-05
2	0x39001ee3	0.00012218537
3	0x3b4d50df	0.003132872

layer3.9.conv1.weight f4 [1, 4, 1, 1]
0	0x3ebf3e19	0.37352064
1	0x3ed4a053	0.41528568
2	0x3d764312	0.060122557
3	0x3f1bce54	0.60861707

layer3.9.conv2.weight f4 [1, 1, 3, 3]
0	0x3da61d9d	0.08111117
1	0xbd8add6c	-0.06780514
2	0x3ead292f	0.33820483
3	0xbd94bdb3	-0.07262745
4	0xbfa8434c	-1.3145537
5	0x3f03e21c	0.5151689
6	0x3ec0fa66	0.3769104
7	0xbea89754	-0.32927954
8	0x3f0f2bdc	0.559263

layer3.9.conv3.weight f4 [4, 1, 1, 1]
0	0xbd492237	-0.049104895
1	0xbe31ac6a	-0.17350927
2	0xbd9acda0	-0.07558751
3	0xbe3344a3	-0.17506652

layer3.9.bn3.weight f4 [4]
0	0x3f1cab61	0.61199003
1	0xbfbe9230	-1.4888363
2	0x3eded0a3	0.43518552
3	0xbf90fd7d	-1.1327358

layer3.9.bn3.bias f4 [4]
0	0xbf0244ac	-0.50886035
1	0x3ebd416e	0.3696398
2	0xbdcce920	-0.100054026
3	0x3ee6c3d8	0.45071292

layer3.9.bn3.running_mean f4 [4]
0	0xbd270774	-0.040778592
1	0xbe12cc69	-0.14335789
2	0xbd80123d	-0.06253479
3	0xbe1405e6	-0.14455375

layer3.9.bn3.running_var f4 [4]
0	0x39a81b1f	0.00032063664
1	0x3b81cd76	0.0039612604
2	0x3a459e5b	0.00075385504
3	0x3b83f9d8	0.0040275864

layer3.10.conv1.weight f4 [1, 4, 1, 1]
0	0xbe59fdcf	-0.21288227
1	0xbf2bdb60	-0.67131615
2	0x3e4a506f	0.19757245
3	0xbfbf2789	-1.493394

layer3.10.conv2.weight f4 [1, 1, 3, 3]
0	0xbe43f1b9	-0.19135179
1	0x3c61c02a	0.013778726
2	0x3f17ada5	0.59249336
3	0xbf017001	-0.5056153
4	0x3f656405	0.8960574
5	0x3f22af31	0.6354857
6	0xbe12cddb	-0.1433634
7	0xbf257b18	-0.6464095
8	0xbd45aec8	-0.048262388

layer3.10.conv3.weight f4 [4, 1, 1, 1]
0	0x3c252cc3	0.010081473
1	0xbea6901d	-0.32531825
2	0x3e7459ab	0.2386233
3	0x40123f7f	2.2851255

layer3.10.bn3.weight f4 [4]
0	0xbc253057	-0.010082326
1	0xbff35f59	-1.9013473
2	0x3fd79a9e	1.684406
3	0x3f826c27	1.0189255

layer3.10.bn3.bias f4 [4]
0	0xbee16da2	-0.44028956
1	0x3f493a08	0.78604174
2	0xbdc5c011	-0.096557744
3	0x3f73a846	0.9517864

layer3.10.bn3.running_mean f4 [4]
0	0x39c842d7	0.00038196772
1	0xbc7fcf51	-0.015613393
2	0x3c3baa47	0.0114541715
3	0x3de0dc1a	0.10979481

layer3.10.bn3.running_var f4 [4]
0	0x322bf052	1.00081525e-08
1	0x37809dfb	1.5332354e-05
2	0x370a7449	8.252516e-06
3	0x3a46a823	0.0007578155

layer3.11.conv1.weight f4 [1, 4, 1, 1]
0	0xbe25659f	-0.16152047
1	0xbde9ffd2	-0.11425747
2	0xbf432cfa	-0.76240504
3	0x3e0e5879	0.13900937

layer3.11.conv2.weight f4 [1, 1, 3, 3]
0	0xbe5f2ae4	-0.21793705
1	0x3f2f6a7a	0.68521845
2	0xbed259ae	-0.41084045
3	0x3e3cc6c9	0.18435206
4	0x3eef0f77	0.46691486
5	0xbe6db439	-0.2321328
6	0xbd27ef67	-0.040999796
7	0x3f398a80	0.7247696
8	0xbd8a6798	-0.0675804

layer3.11.conv3.weight f4 [4, 1, 1, 1]
0	0x3dc2ce1a	0.09511967
1	0xbd7c1ee4	-0.061552897
2	0xbcca36b0	-0.02468428
3	0x3e273734	0.16329652

layer3.11.bn3.weight f4 [4]
0	0x3ec2a571	0.38016847
1	0x3f7877f1	0.97058016
2	0x3e3489a4	0.1763063
3	0x3e4e7b3d	0.20164199

layer3.11.bn3.bias f4 [4]
0	0xbec3fe5a	-0.38279992
1	0x3f13af8d	0.57689744
2	0xbe95f2b1	-0.2928672
3	0x3f1dbf65	0.6162017

layer3.11.bn3.running_mean f4 [4]
0	0x3c17a216	0.009254953
1	0xbbc43533	-0.005987787
2	0xbb1b1cb8	-0.002366824
3	0x3c822692	0.015887532

layer3.11.bn3.running_var f4 [4]
0	0x3a8c51f0	0.0010705572
1	0x39eae7b7	0.000448046
2	0x38930b49	7.011608e-05
3	0x3b4ebd59	0.0031545965

layer3.12.conv1.weight f4 [1, 4, 1, 1]
0	0x3de0cd3d	0.10976646
1	0x3ed5e56b	0.41776595
2	0xbd6fba40	-0.05852723
3	0x3eddb8cf	0.4330506

layer3.12.conv2.weight f4 [1, 1, 3, 3]
0	0x3cfd845a	0.0309469
1	0xbec7ad15	-0.3899924
2	0xbdca3b92	-0.098746434
3	0xbf0e0ae2	-0.55485356
4	0xbee95a3d	-0.4557666
5	0xbf325c46	-0.6967205
6	0xbf3e4cf5	-0.7433618
7	0xbf15068d	-0.5821312
8	0xbf3a280a	-0.72717345

layer3.12.conv3.weight f4 [4, 1, 1, 1]
0	0xbd325345	-0.043536443
1	0x3e85134d	0.25991288
2	0xbe3abe33	-0.18236618
3	0x3e195c26	0.14976558

layer3.12.bn3.weight f4 [4]
0	0xbd422812	-0.047401495
1	0xbfee1a66	-1.8601806
2	0xbf2cce9b	-0.67502755
3	0x3f5054a3	0.81379145

layer3.12.bn3.bias f4 [4]
0	0xbe9e2423	-0.30886945
1	0x3f0acbf7	0.54217476
2	0xbe1f9870	-0.15585494
3	0x3f1c843d	0.6113928

layer3.12.bn3.running_mean f4 [4]
0	0xbbf91a45	-0.0076020085
1	0x3d3773fa	0.04478834
2	0xbd00c6f5	-0.03143974
3	0x3cd20987	0.025639309

layer3.12.bn3.running_var f4 [4]
0	0x383b2003	4.4614088e-05
1	0x3acaf0d7	0.0015483153
2	0x3a47ffbb	0.00076293544
3	0x3a0507d0	0.00050747115

layer3.13.conv1.weight f4 [1, 4, 1, 1]
0	0xbfc4c653	-1.5373024
1	0xbe18d6cd	-0.1492569
2	0x3e8e7564	0.27823937
3	0xbea23a25	-0.31684986

layer3.13.conv2.weight f4 [1, 1, 3, 3]
0	0xbd958897	-0.07301443
1	0x3d292075	0.04129072
2	0xbe470414	-0.1943515
3	0xbd8a0a15	-0.06740204
4	0xbff370f9	-1.9018852
5	0x3d1f2492	0.038853236
6	0xbdf5e3f6	-0.12006371
7	0xbe71b8b3	-0.23605613
8	0xbe62738b	-0.22114389

layer3.13.conv3.weight f4 [4, 1, 1, 1]
0	0xbe370bfc	-0.17875665
1	0x3e3fb889	0.18722738
2	0x3e378fc3	0.17925934
3	0x3ef62f24	0.4808284

layer3.13.bn3.weight f4 [4]
0	0x3f407041	0.75171286
1	0x3f7e583a	0.99353373
2	0x3f6e661d	0.9312456
3	0xbef3e554	-0.476359

layer3.13.bn3.bias f4 [4]
0	0xbe57242f	-0.21009897
1	0xbc5053bd	-0.012715277
2	0x3eaf1f2c	0.3420347
3	0x3f274bad	0.6534985

layer3.13.bn3.running_mean f4 [4]
0	0xbc35ded1	-0.011100487
1	0x3c3e77d9	0.011625254
2	0x3c374870	0.011186704
3	0x3cf5abad	0.029989088

layer3.13.bn3.running_var f4 [4]
0	0x3a57b615	0.00082287315
1	0x3a6c96a1	0.0009025131
2	0x3a5b0c0b	0.00083559816
3	0x3bc4c70f	0.006005175

layer3.14.conv1.weight f4 [1, 4, 1, 1]
0	0xbcd1505e	-0.025551017
1	0x3c3abc66	0.011397457
2	0x3e1dda67	0.15415345
3	0x3da9d982	0.082934394

layer3.14.conv2.weight f4 [1, 1, 3, 3]
0	0xbbc0026f	-0.005859665
1	0xbd3a10dd	-0.04542624
2	0xbd0ab52e	-0.033864193
3	0x3d8db9cf	0.06920206
4	0xbcf68ae1	-0.03009552
5	0xbd129025	-0.035782
6	0xbcd85547	-0.02640785
7	0xbc154d5f	-0.009112685
8	0x3d064a0a	0.032785453

layer3.14.conv3.weight f4 [4, 1, 1, 1]
0	0x3c97777d	0.018489594
1	0x3e8f5f05	0.28002182
2	0xbcc93a1f	-0.024563847
3	0x400562c1	2.0841525

layer3.14.bn3.weight f4 [4]
0	0xbca0bad6	-0.01962034
1	0x3f637546	0.8885082
2	0xbfe41a39	-1.7820503
3	0xbf052f56	-0.52025354

layer3.14.bn3.bias f4 [4]
0	0xbf35f73d	-0.7108038
1	0xbe5768d1	-0.21036078
2	0x3e62aa4c	0.22135276
3	0x3e177066	0.1478897

layer3.14.bn3.running_mean f4 [4]
0	0x396a0265	0.00022316871
1	0x3b64211d	0.0034809776
2	0xb9a3f982	-0.0003127568
3	0x3cd48765	0.025943467

layer3.14.bn3.running_var f4 [4]
0	0x32cb3d8b	2.3660297e-08
1	0x36c2da3c	5.8070564e-06
2	0x334be74e	4.747499e-08
3	0x39a905e6	0.00032238587

layer3.15.conv1.weight f4 [1, 4, 1, 1]
0	0xbeb396c9	-0.35075977
1	0x3eef6cc1	0.4676266
2	0xbed4a433	-0.41531524
3	0x3e23a6ff	0.15981673

layer3.15.conv2.weight f4 [1, 1, 3, 3]
0	0xbe489389	-0.1958753
1	0xbe20f053	-0.15716676
2	0xbf484b93	-0.7824032
3	0xbd9893e1	-0.07450081
4	0x3ed16c53	0.40902957
5	0xbfbc7124	-1.4722028
6	0xbd6760f0	-0.05648893
7	0xbe9e13fc	-0.30874622
8	0xbfb7160b	-1.4303602

layer3.15.conv3.weight f4 [4, 1, 1, 1]
0	0x3c571baf	0.013129159
1	0x3db707de	0.089370474
2	0xbd23d2ab	-0.03999583
3	0xbdf4cc37	-0.119530134

layer3.15.bn3.weight f4 [4]
0	0x3e0788c1	0.13235761
1	0xbf46753a	-0.77522624
2	0xbf2c01ac	-0.6719005
3	0xbf7d216d	-0.9887913

layer3.15.bn3.bias f4 [4]
0	0xbf312d73	-0.69209975
1	0xbf13c6a2	-0.57724965
2	0x3e9c7c27	0.3056347
3	0x3e7de98a	0.2479612

layer3.15.bn3.running_mean f4 [4]
0	0x3a9b50e8	0.0011849673
1	0x3c2aed86	0.010432607
2	0xbb982e6e	-0.0046442067
3	0xbc66a7b1	-0.014078067

layer3.15.bn3.running_var f4 [4]
0	0x37bd6ee9	2.2582202e-05
1	0x3ad6dc96	0.0016392644
2	0x39aa6a0b	0.00032503935
3	0x3b438aa2	0.002983727

layer3.16.conv1.weight f4 [1, 4, 1, 1]
0	0xbf148229	-0.5801111
1	0xbf0a3a7c	-0.5399549
2	0x3db76db5	0.08956472
3	0xbf9ff55d	-1.2496754

layer3.16.conv2.weight f4 [1, 1, 3, 3]
0	0xbf0b6d88	-0.54464006
1	0xbf135ac0	-0.5756035
2	0x3f40f1a0	0.7536869
3	0xbf02ba5e	-0.51065624
4	0x3e96f6d7	0.294852
5	0xbda4804e	-0.08032285
6	0xbed19d04	-0.40940106
7	0xbf91d322	-1.1392558
8	0x3ef36e00	0.4754486

layer3.16.conv3.weight f4 [4, 1, 1, 1]
0	0x3f86c40e	1.0528581
1	0xbf8f83fc	-1.1212153
2	0xbe892d21	-0.26792243
3	0x3fbfeaaf	1.4993495

layer3.16.bn3.weight f4 [4]
0	0x4010a87a	2.260283
1	0xc03e2314	-2.970891
2	0xbece8f5f	-0.40343758
3	0x3e53b3cf	0.2067406

layer3.16.bn3.bias f4 [4]
0	0xbfab56c8	-1.3385859
1	0xbfaad4d4	-1.33462
2	0x3ef76df2	0.4832607
3	0x3e987b02	0.29781348

layer3.16.bn3.running_mean f4 [4]
0	0x3b0c775d	0.002143345
1	0xbb15a37c	-0.002283304
2	0xba0f0192	-0.0005455251
3	0x3b482e30	0.0030545108

layer3.16.bn3.running_var f4 [4]
0	0x3a527525	0.000802832
1	0x3a6ed679	0.00091109384
2	0x385a268e	5.2011157e-05
3	0x3ad5b3bb	0.0016304174

layer3.17.conv1.weight f4 [1, 4, 1, 1]
0	0x3cba6f3d	0.02275812
1	0x3f79228d	0.97318345
2	0xbed45d05	-0.41477218
3	0xbefaa7e3	-0.48956212

layer3.17.conv2.weight f4 [1, 1, 3, 3]
0	0xbf32c814	-0.69836545
1	0x3f606365	0.87651664
2	0x3f158124	0.5840018
3	0x3ebac576	0.36478776
4	0xbe75fee3	-0.24023013
5	0x3f94bf15	1.1620814
6	0xbecc6b1b	-0.39925465
7	0x3f87e2a8	1.0616045
8	0x3e36e915	0.17862351

layer3.17.conv3.weight f4 [4, 1, 1, 1]
0	0xbd3f13e1	-0.046649817
1	0x3daeed00	0.08541298
2	0x3d6fb5cc	0.058522984
3	0x3dfb1caf	0.1226133

layer3.17.bn3.weight f4 [4]
0	0x3ecd751e	0.40128416
1	0x3f6190b1	0.88111407
2	0x3e2f50ed	0.17120714
3	0x3f35a6b7	0.7095751

layer3.17.bn3.bias f4 [4]
0	0xbf487ade	-0.7831248
1	0xbf9efd75	-1.2421099
2	0x3d287ac2	0.041132696
3	0x3eafea53	0.34358463

layer3.17.bn3.running_mean f4 [4]
0	0xbb899c16	-0.004199515
1	0x3c085e18	0.008323215
2	0x3bb1a392	0.0054211104
3	0x3c44b9f2	0.012007223

layer3.17.bn3.running_var f4 [4]
0	0x38793b2b	5.942133e-05
1	0x39730f3e	0.00023179964
2	0x38cecf18	9.86142e-05
3	0x39fcde44	0.00048230786

layer3.18.conv1.weight f4 [1, 4, 1, 1]
0	0xbedb8151	-0.42872098
1	0xbe3faea0	-0.18718958
2	0xbf52fb3a	-0.8241459
3	0x3dac7fbd	0.08422802

layer3.18.conv2.weight f4 [1, 1, 3, 3]
0	0x3e6b1c96	0.22960123
1	0x3ec023b2	0.37527233
2	0xbe8dff3c	-0.2773379
3	0x3e60ec41	0.21965124
4	0xbf23b366	-0.63945615
5	0x3e487322	0.1957517
6	0xbd81af07	-0.06332212
7	0xbf6c871e	-0.9239367
8	0xbf3ff5ea	-0.7498461

layer3.18.conv3.weight f4 [4, 1, 1, 1]
0	0xbd60f2d2	-0.05491907
1	0xbd7f5c4a	-0.062343873
2	0xbdbc068a	-0.09180935
3	0x3d1bafba	0.038009383

layer3.18.bn3.weight f4 [4]
0	0xbfd60694	-1.6720757
1	0xbe96bd59	-0.29441336
2	0xbfa319c2	-1.2742236
3	0x3f2eafb7	0.6823687

layer3.18.bn3.bias f4 [4]
0	0xbeb68c13	-0.35653743
1	0xbfa7da74	-1.3113542
2	0x3e1b3e4f	0.15160488
3	0x3e340991	0.17581774

layer3.18.bn3.running_mean f4 [4]
0	0xbcc1c0e6	-0.023651551
1	0xbcd631bb	-0.02614676
2	0xbd21457d	-0.03937291
3	0x3c8317d5	0.016002575

layer3.18.bn3.running_var f4 [4]
0	0x3a41e921	0.00073971046
1	0x3a6cfb62	0.00090401445
2	0x3b064f2d	0.002049397
3	0x39b18588	0.0003385956

layer3.19.conv1.weight f4 [1, 4, 1, 1]
0	0x3f4280aa	0.75977576
1	0xbe972fe7	-0.29528734
2	0x3f292981	0.66078955
3	0xbfa2d81a	-1.2722199

layer3.19.conv2.weight f4 [1, 1, 3, 3]
0	0x3d3a458d	0.045476485
1	0x3f7f44ab	0.99714154
2	0x3d187363	0.037219416
3	0xbe9d4423	-0.30716047
4	0xbe563ed9	-0.20922412
5	0x3fa5b320	1.294529
6	0x3f902ddb	1.1263994
7	0x3f235a3b	0.63809556
8	0x3f9f7f13	1.2460655

layer3.19.conv3.weight f4 [4, 1, 1, 1]
0	0x3d2c6242	0.042085893
1	0xbdb3ebf0	-0.08785236
2	0xbdae2b03	-0.085042976
3	0x3e833d85	0.25632873

layer3.19.bn3.weight f4 [4]
0	0xbdedaaec	-0.116048664
1	0x3f6b5ff6	0.919433
2	0x3f1702e3	0.5898878
3	0xbfbf6cf7	-1.4955128

layer3.19.bn3.bias f4 [4]
0	0xbddfbcda	-0.109246925
1	0xbfac3b3f	-1.345558
2	0xbc3748fe	-0.011186836
3	0xbe241ad3	-0.16025858

layer3.19.bn3.running_mean f4 [4]
0	0x3bda7cea	0.006667723
1	0xbc5cc1d3	-0.013473946
2	0xbc5dc960	-0.013536781
3	0x3d2346ec	0.03986256

layer3.19.bn3.running_var f4 [4]
0	0x389bbff4	7.42673e-05
1	0x399ebdc1	0.00030277486
2	0x39a0622a	0.00030590716
3	0x3b2db223	0.0026503883

layer3.20.conv1.weight f4 [1, 4, 1, 1]
0	0x3b825590	0.003977485
1	0xbe138bf6	-0.1440886
2	0x3e285ab9	0.16440858
3	0x3fb441a1	1.4082528

layer3.20.conv2.weight f4 [1, 1, 3, 3]
0	0x3c8cf07c	0.017204516
1	0x3d05496e	0.03254073
2	0xbeb04a1b	-0.34431538
3	0x3cc41730	0.023936838
4	0x3e639661	0.22225334
5	0x3f9a8cc3	1.2074207
6	0xbc648c23	-0.013949427
7	0x40050828	2.0786228
8	0x3e946a0e	0.28987163

layer3.20.conv3.weight f4 [4, 1, 1, 1]
0	0x3e9a4210	0.30128527
1	0xbdc87cb6	-0.09789412
2	0x3dc2a478	0.09504026
3	0x3f8785a2	1.0587656

layer3.20.bn3.weight f4 [4]
0	0x3ea77bbb	0.32711586
1	0xbfb9c2fe	-1.4512632
2	0xbf704993	-0.93862265
3	0x3fe7b54b	1.8102201

layer3.20.bn3.bias f4 [4]
0	0x3ec07c8e	0.37595028
1	0xbfce7ecb	-1.6132444
2	0x3c313bea	0.010817507
3	0xbe2c8c56	-0.16850409

layer3.20.bn3.running_mean f4 [4]
0	0x3dbda76b	0.09260448
1	0xbcf97408	-0.030450836
2	0x3cf3af87	0.029746784
3	0x3ea8aa68	0.3294251

layer3.20.bn3.running_var f4 [4]
0	0x3b6dad73	0.0036266714
1	0x39cd996a	0.0003921495
2	0x39c4360e	0.00037424307
3	0x3d3bf9a2	0.045892365

layer3.21.conv1.weight f4 [1, 4, 1, 1]
0	0x3db76de2	0.08956505
1	0xbf34bd32	-0.7060119
2	0x3d164f24	0.036696568
3	0x3fb840c5	1.4394766

layer3.21.conv2.weight f4 [1, 1, 3, 3]
0	0xbe3029dd	-0.1720347
1	0x3ec8bf54	0.39208472
2	0xbe61fbe9	-0.22068752
3	0x3e2bc4e5	0.16774328
4	0x3fece978	1.8508749
5	0x3f33cec0	0.7023735
6	0x3e794c63	0.24345545
7	0x3f007342	0.5017587
8	0xbef65c09	-0.48117092

layer3.21.conv3.weight f4 [4, 1, 1, 1]
0	0x3a8734b3	0.0010315388
1	0xbe102397	-0.14076076
2	0xbd8f571c	-0.06999037
3	0xbe25e93c	-0.16202253

layer3.21.bn3.weight f4 [4]
0	0xbc06ad6a	-0.008220056
1	0x3fc2cf20	1.521946
2	0x3ef64ccf	0.48105475
3	0x3f56146b	0.83624905

layer3.21.bn3.bias f4 [4]
0	0xbca577c7	-0.020198716
1	0xbfc75e38	-1.5575628
2	0x3c1feff4	0.009761799
3	0x3ccef3b5	0.025262693

layer3.21.bn3.running_mean f4 [4]
0	0x3957c5da	0.00020577703
1	0xbcfa6261	-0.030564489
2	0xbc7470a9	-0.014919438
3	0xbd0fae91	-0.03507859

layer3.21.bn3.running_var f4 [4]
0	0x324bf155	1.1871028e-08
1	0x392125ab	0.00015368189
2	0x38195d13	3.6564725e-05
3	0x395446d6	0.00020244284

layer3.22.conv1.weight f4 [1, 4, 1, 1]
0	0x3f147f95	0.58007175
1	0x3f95dcc4	1.1707997
2	0xbf14c569	-0.58113724
3	0x3ebf688a	0.37384444

layer3.22.conv2.weight f4 [1, 1, 3, 3]
0	0xbf80800a	-1.0039074
1	0x3ce1e4b1	0.027574869
2	0xbb6dc34b	-0.0036279734
3	0xbb4aa417	-0.003092056
4	0x401e8ebe	2.4774623
5	0xbc10fd5b	-0.008849467
6	0xbe3b709a	-0.18304673
7	0x3d9eb77a	0.07749839
8	0xbbcd537e	-0.0062660566

layer3.22.conv3.weight f4 [4, 1, 1, 1]
0	0x3ee4f6ab	0.44719443
1	0x3f89596a	1.0730412
2	0x3e21771f	0.15768097
3	0xbf14db09	-0.5814672

layer3.22.bn3.weight f4 [4]
0	0xbf8fd7e4	-1.123776
1	0xc0cb7488	-6.357975
2	0xbe9a3a6b	-0.30122694
3	0xbfb6d055	-1.4282328

layer3.22.bn3.bias f4 [4]
0	0x3eb8f12b	0.36121497
1	0xc003ec5c	-2.0613012
2	0xb95fa46b	-0.00021328188
3	0x3cce73e2	0.025201742

layer3.22.bn3.running_mean f4 [4]
0	0x3e3a6943	0.18204217
1	0x3ee06d4e	0.43833393
2	0x3d83406d	0.064087726
3	0xbe727d88	-0.23680699

layer3.22.bn3.running_var f4 [4]
0	0x39176c93	0.00014440929
1	0x3a5b876b	0.0008374366
2	0x37961bbe	1.7894312e-05
3	0x39801fbc	0.00024437706

layer4.0.conv1.weight f4 [1, 4, 1, 1]
0	0xbf3e2ee1	-0.7429028
1	0xbc804860	-0.015659511
2	0xbe146d52	-0.14494827
3	0x3f6f881c	0.9356706

layer4.0.conv2.weight f4 [1, 1, 3, 3]
0	0x3d234414	0.039859846
1	0x3e1b2b5b	0.15153258
2	0xbea4b41d	-0.32168666
3	0x3c1b907a	0.009494895
4	0x3f3df753	0.7420551
5	0x3f722153	0.945821
6	0x3dd610cc	0.104524225
7	0xbbb4f248	-0.0055220462
8	0xbf046bc0	-0.51726913

layer4.0.downsample.0.weight f4 [1, 4, 1, 1]
0	0xbedbd080	-0.4293251
1	0xc05d05f4	-3.4534883
2	0xbb5819d5	-0.0032974381
3	0xbbdcbd0b	-0.006736403

layer4.1.conv2.weight f4 [1, 1, 3, 3]
0	0x3cec80ff	0.028870104
1	0xbcdb2827	-0.026752545
2	0xbbabf6e5	-0.005247938
3	0xbbb2319e	-0.0054380437
4	0xbd4aff6e	-0.049560003
5	0x3c0a6438	0.008446746
6	0x3c49a874	0.012308229
7	0xbc6d0dfe	-0.014468668
8	0xbab58604	-0.0013849144

layer4.2.conv2.weight f4 [1, 1, 3, 3]
0	0xbd6c0617	-0.057622995
1	0xbda8c422	-0.08240534
2	0xbd4c9cbc	-0.04995416
3	0xbe05539f	-0.1302018
4	0xbf2eaac0	-0.68229294
5	0xbf2bcdcf	-0.67110914
6	0x3e89cf6d	0.26916066
7	0xbdb08b4b	-0.08620318
8	0xbef612c5	-0.48061195
