models/imagenet_narrow_vgg.ckpt (torch, 33094 bytes, 14 tensors)

features.0.weight f4 [1, 3, 3, 3]
000000 11 e6 0a 3c 5e e3 7b 3d 48 91 a4 3e 97 25 cf be
       0.008477704 0.06149613 0.3214209 -0.40458366
000010 5f cb 13 be 68 74 04 3f e6 46 d7 be 1d 66 40 be
       -0.14433049 0.5174012 -0.4204628 -0.18788953
000020 d2 b6 19 3f a5 bf 22 be df 4d 33 3e 80 9e b7 be
       0.60044587 -0.15893419 0.17510174 -0.35863113
000030 b2 fe 15 3e d8 94 d2 bb 8a 77 46 3d 44 1b 51 be
       0.1464794 -0.006426435 0.048453845 -0.20420557
000040 16 cf 19 be 55 b1 aa 3d 29 0c 36 3e 98 c3 fc 3a
       -0.15020403 0.08334605 0.17778076 0.0019284366
000050 bc 25 8b bc 56 e1 8e 3e ec 0a d3 bd a9 96 49 be
       -0.016985767 0.27906293 -0.103048176 -0.19686379
000060 d4 b9 7c bc f8 dc 29 3c fb a8 d6 be
       -0.015425164 0.010367624 -0.41925797

features.3.weight f4 [1, 1, 3, 3]
000000 e0 97 a9 3e 19 08 3c 3f 0a e0 89 3d 34 09 91 be
       0.33123684 0.73449856 0.06732185 -0.28327334
000010 2d f0 01 bf b1 6f 73 be bb 46 2b bf 45 f2 90 3f
       -0.50757104 -0.23773076 -0.669048 1.1323935
000020 a3 3b 5d 3f
       0.86419123

features.7.weight f4 [1, 1, 3, 3]
000000 96 70 69 3f 52 5f 22 3e c6 70 e2 bd fd eb 53 3e
       0.9118742 0.15856674 -0.11056666 0.20695491
000010 dd e3 09 3f b5 58 b8 bc fb 89 3b 3f 21 f6 20 be
       0.53863317 -0.022503236 0.73257416 -0.1571889
000020 d7 6e 6f bf
       -0.93528503

features.10.weight f4 [1, 1, 3, 3]
000000 9c 52 46 be 4a d7 09 bf 58 24 ba 3e 1e e8 50 3e
       -0.1936745 -0.5384413 0.36355853 0.20401046
000010 fa 20 31 3e bc ed 96 3e e1 1e 2e bf 02 28 04 3d
       0.17297736 0.29478252 -0.6801587 0.032264717
000020 0c 10 2c bf
       -0.67211986

features.14.weight f4 [1, 1, 3, 3]
000000 79 13 d2 3e de 08 c1 3e ca 45 50 3f aa 85 a6 bd
       0.4103048 0.37702078 0.8135649 -0.08130963
000010 87 cf 82 bd d8 c4 80 be 4e 46 0f 3f 11 e8 0f be
       -0.06387239 -0.2515018 0.5596665 -0.1405337
000020 b2 22 2c be
       -0.1681011

features.17.weight f4 [1, 1, 3, 3]
000000 a9 be d5 3e 02 4b 95 39 4b 16 10 3f 32 98 5c bf
       0.41747025 0.0002847538 0.56284016 -0.8616973
000010 64 c0 bf 3d 42 b7 92 3f 8d d3 85 be 0a 49 3f 3e
       0.093628675 1.1462176 -0.26137963 0.18680206
000020 40 91 c2 3e
       0.38001442

features.20.weight f4 [1, 1, 3, 3]
000000 27 df e5 3c a3 82 a4 3d 94 56 f0 3e 55 3d 27 3f
       0.028060509 0.080327295 0.46941054 0.6532796
000010 41 64 ac be 67 3e c7 3a a8 9b eb be 5f 67 50 be
       -0.33670238 0.0015201092 -0.46017194 -0.20351933
000020 bc dd f5 be
       -0.48020732

features.24.weight f4 [1, 1, 3, 3]
000000 63 c2 b7 bd ec 14 e8 be 2a e8 7f bf 0c 65 a9 3d
       -0.08972623 -0.45328462 -0.9996363 0.08271226
000010 8f 42 3c bf 00 3a b2 be b8 5a 53 3f 4f cd 0c 3e
       -0.7353906 -0.34809875 0.825603 0.13750194
000020 01 5a 96 3e
       0.29365543

features.27.weight f4 [1, 1, 3, 3]
000000 58 8d 61 3e 1e 15 b1 be 85 1b f8 3e c3 29 6e 3e
       0.22026575 -0.34586424 0.48458496 0.23258118
000010 82 6b a7 3e cd d2 94 3e 63 d8 b7 3e 7d 79 ba be
       0.3269921 0.29067078 0.35907277 -0.36420813
000020 6c ce 36 bf
       -0.71408725

features.30.weight f4 [1, 1, 3, 3]
000000 07 c9 00 bf f3 1c 40 be db 09 06 3e 94 6a 11 bf
       -0.50306743 -0.18761043 0.13089697 -0.5680325
000010 62 46 1f 3f ad cd 8a be d1 5f d4 bd 1e 97 57 3d
       0.6221677 -0.27110043 -0.10369838 0.05263435
000020 19 2f 62 bf
       -0.88353115

features.34.weight f4 [1, 1, 3, 3]
000000 87 93 56 3f 75 1f 14 bf a2 4a ac 3e fd 4f f3 be
       0.8381886 -0.578605 0.3365069 -0.47521964
000010 af 7e 88 3f 74 72 09 3d 5b b6 85 3e f5 30 14 3f
       1.0663661 0.033556417 0.2611569 0.578872
000020 38 34 93 3e
       0.28750777

features.37.weight f4 [1, 1, 3, 3]
000000 7c 65 b7 bd 75 11 1e 3f 58 0c 10 3f e6 1e 43 be
       -0.089549035 0.6174539 0.56268835 -0.19054756
000010 31 1c 59 3e ac 52 4b be 83 f3 59 3e b2 9a a2 be
       0.2120216 -0.19855756 0.21284299 -0.31758648
000020 57 94 94 be
       -0.29019424

features.40.weight f4 [1, 1, 3, 3]
000000 78 e4 9c bf 52 28 a6 be 09 ca 29 3f d6 f3 87 3f
       -1.2257223 -0.32452637 0.66323906 1.0621288
000010 65 68 d3 be 1f 6d e6 bd 07 c5 9c be 93 d2 7e be
       -0.41290584 -0.11251282 -0.3061907 -0.24885015
000020 c5 00 26 3e
       0.16211231

classifier.0.weight f4 [1, 49]
000000 24 89 fc bb 2e 18 a7 be cb 57 0d be 06 a1 68 3d
       -0.007706778 -0.32635635 -0.13803022 0.05679419
000010 11 74 0a 3e 6c 8e 39 bd ff a9 d9 be c4 be fe bd
       0.13520838 -0.04530184 -0.4251251 -0.124387294
000020 6e 5c 2d be 80 ab 73 be b7 fc 82 3e df 48 e9 bd
       -0.1692979 -0.23795891 0.2558343 -0.11390852
000030 25 3f 15 be 95 5b 26 3e fd ef 0e 3d 88 62 89 3d
       -0.14574869 0.16245873 0.03489684 0.067082465
000040 e9 4f c6 bd 3a 0b 57 be 9f 6e e8 bd 1f ba d5 3c
       -0.096832104 -0.21000376 -0.11349224 0.026089726
000050 b7 5a 5e be 67 f3 3a bd 41 e5 4e bb 7e c4 8d be
       -0.21714292 -0.045642283 -0.0031569751 -0.27688974
000060 4a 92 e2 be af 5d 2f be 6f 70 bd 3d 06 81 15 3e
       -0.44252235 -0.17125581 0.09249961 0.146
000070 76 43 89 bd d3 d6 d0 3c bb e1 a8 3d 4c 50 f0 bd
       -0.0670232 0.025493061 0.0824618 -0.117340654
000080 87 2d cb 3c a3 5d 00 be 59 81 7c be 3f db 22 3c
       0.024801983 -0.1253572 -0.24658717 0.009939968
000090 a0 3a 98 bd 48 d5 4d be f3 7a 26 be 06 70 67 3d
       -0.07433057 -0.20100892 -0.16257839 0.05650332
0000a0 18 c8 6a be c1 4a ef bd 56 3c eb 3c 47 f9 6f be
       -0.22927892 -0.1168418 0.028715294 -0.23434936
0000b0 2e 7a 47 be fa a9 35 bd 8b c1 82 be f2 81 b6 be
       -0.19480202 -0.044351555 -0.25538287 -0.35646015
0000c0 cc 23 8a 3f
       1.0792174
